LDSP-lite/src/main/assets/lstm_model.onnx (onnx, 10382 bytes, 4 tensors)

dense.weight f4 [1, 20]
000000 95 6c 24 3d 79 de 81 3c dd d1 ea bd 6b 50 60 3e
       0.040142614 0.015853154 -0.114658095 0.21905677
000010 9e 7c 4a 3e f9 61 4a 3e 2c f1 1b be 10 2c 98 bd
       0.197741 0.19763936 -0.15228719 -0.07430279
000020 4d 28 1f be 3f 3f 3f be 29 53 3e 3e 87 65 00 be
       -0.15542717 -0.1867647 0.1858641 -0.1253873
000030 a2 6b 03 be e5 f8 52 3e 56 e3 49 be c5 55 04 3c
       -0.12834027 0.20602758 -0.19715628 0.00807709
000040 cf ee 88 3d 43 c7 56 3d 0d d6 5b be 64 ad 5f be
       0.06686174 0.052436125 -0.21468373 -0.21843487

onnx::LSTM_117 f4 [1, 80, 1]
000000 b3 2f 4e 3d 1f 41 63 be 53 bd ec 3c 87 96 36 be
       0.05033846 -0.2219281 0.02889887 -0.17830859
000010 80 e9 5c 3e 2f d1 98 3d 0a 67 3e be ce b1 17 3e
       0.21573448 0.074617736 -0.18593994 0.14813921
000020 24 1d 48 3e 03 c5 81 bd 83 25 92 3d 70 9d ef 3d
       0.19542366 -0.06336405 0.07136061 0.11699951
000030 98 a4 d9 3d 8e 47 92 bd 48 a4 59 be a7 79 79 bd
       0.10627097 -0.07142554 -0.21254075 -0.060907032
000040 cd a0 d5 bc 68 c9 94 bb 9f c3 1d 3e 6d 99 a2 bd
       -0.026077652 -0.004540611 0.15406655 -0.0793942
000050 fa c2 61 be 15 8e 5f be 00 90 dd 3d 62 a6 c2 bd
       -0.22047034 -0.21831544 0.108184814 -0.09504391
000060 9b 22 d8 3c 9e d4 40 be 4a 2b 5d 3e b8 37 49 be
       0.026383689 -0.18831107 0.21598545 -0.19650161
000070 50 26 04 bd fa bf ae bd b7 66 86 bc 82 f9 d1 bb
       -0.0322631 -0.085327104 -0.0164064 -0.0064079175
000080 8a 90 aa 3d 98 6d 37 be 72 be a2 bd 89 af 41 3e
       0.0832835 -0.179129 -0.07946481 0.18914618
000090 a9 f8 2a 3e aa 63 a3 bc 0c ab fd 3d 52 35 5b be
       0.16696419 -0.019944984 0.1238614 -0.21407059
0000a0 bf 48 ab 3d 14 f0 bb 3d d6 3b f0 bd ed d7 aa bb
       0.083634846 0.09176651 -0.11730163 -0.0052137286
0000b0 ff df 3e be 08 79 9a bc 6e c3 10 be 4e 63 ea bd
       -0.18640135 -0.01885654 -0.1413705 -0.11444722
0000c0 cf 65 55 3e b4 15 4e be 14 bb 62 be 81 03 4f be
       0.20839618 -0.20125467 -0.22141677 -0.2021618
0000d0 2b ea 4f 3e 22 5c 11 3e a8 d2 93 bd 34 cf 14 3e
       0.20304172 0.14195302 -0.07217914 0.14532167
0000e0 45 65 49 3e a7 1b 1e 3e ec 62 9b bc c5 90 2a 3e
       0.19667538 0.15440236 -0.018968068 0.16656788
0000f0 eb c1 07 3d b0 c2 04 be ba fb 52 3e e0 84 b6 bd
       0.03314392 -0.12964892 0.20603839 -0.08912063
000100 4a c2 57 3e 47 f1 f7 bd 77 38 b2 3d c9 1a e3 bd
       0.21070209 -0.12106567 0.08702176 -0.11089093
000110 45 06 ac 3d a6 84 24 3e 83 9a 52 be 20 99 10 3e
       0.08399633 0.16066226 -0.20566754 0.14120913
000120 5c 9a 02 be 11 41 51 be 98 b5 1c be 10 db a6 bd
       -0.12754196 -0.20434977 -0.15303648 -0.081472516
000130 80 ba 4e be 0d 52 38 be 79 ca fb 3d 9f aa 3c 3d
       -0.20188332 -0.1800005 0.12294478 0.046061154

onnx::LSTM_118 f4 [1, 80, 20]
000000 00 d4 05 3d 89 f4 16 3e 78 f2 16 3d c6 0b 0c bc
       0.032672882 0.1474172 0.03685233 -0.008547729
000010 df 2d 4c be 74 8f 3c bc f5 47 cd bc 87 05 bc bd
       -0.19939373 -0.011508811 -0.025058726 -0.09180742
000020 1e 2b e7 bd 7e e1 dd bc 35 fa 09 3e 6b 13 95 b9
       -0.11287521 -0.027085062 0.13474353 -0.00028433962
000030 0f bd 18 3e 6a 0f 01 3e 11 8b 05 3e 9a 9f b1 bd
       0.1491587 0.12603536 0.13041331 -0.0867302
000040 9a da a6 bc 19 21 2d be 65 63 9a 3c ee 2f d3 3d
       -0.02036791 -0.16907157 0.018846223 0.10311876
000050 75 66 fd 3d de 3e 0c be 50 a3 3c be 28 68 d5 3d
       0.12373058 -0.13695857 -0.18421674 0.10420257
000060 47 96 7b 3d 96 2c 17 3e 89 db 0a be b2 fb 09 be
       0.061422613 0.14763102 -0.13560309 -0.1347492
000070 a3 b9 3b 3e fc 97 44 3e 75 b7 3f 3d ef 68 3b bd
       0.18332534 0.19198602 0.046805818 -0.04575437
000080 07 60 03 3d f9 92 34 be 0d 66 8a 39 57 95 15 3e
       0.032074 -0.1763419 0.00026397445 0.1460775
000090 23 8a 5b 3e e3 0a d6 3d 3b ad 37 3e 8f a0 00 3c
       0.21439414 0.10451295 0.17937176 0.00785078
0000a0 26 4b 41 be 73 58 af bd 12 52 da ba 2a 13 26 3e
       -0.18876323 -0.08561792 -0.0016656539 0.16218248
0000b0 8c f7 28 be dd 9f 3e be 23 93 49 bd ad 2b 7e bc
       -0.16500682 -0.1861567 -0.049212586 -0.015513343
0000c0 0c e0 30 be 9c 14 6a bd a0 0f f5 3c 00 b4 e3 3c
       -0.17272967 -0.05714856 0.029914677 0.027795792
0000d0 83 0c 23 be 91 5e d3 bd f2 e5 96 3d 11 da 40 be
       -0.15922742 -0.103207715 0.07368077 -0.18833186
0000e0 d6 ed fd bd d6 cf 16 3e 71 92 42 be a0 e3 d3 3d
       -0.12398879 0.1472772 -0.19001175 0.103461504
0000f0 7c c8 8d 3d ce c3 5b bd de 1c 43 3d 5b 9d 24 3d
       0.06923005 -0.05365353 0.04763495 0.04018913
000100 78 2f 0d be 42 54 61 3e fc 75 60 be ed a2 ce bd
       -0.13787639 0.22004798 -0.21920007 -0.100896694
000110 9c 18 82 3c d1 8e df 3b 17 2d 59 be 70 16 24 3d
       0.015880875 0.006822445 -0.21208607 0.04006046
000120 d5 3c 2d bc a1 52 23 3e f6 60 3a be a1 27 4f 3e
       -0.0105735855 0.15949489 -0.1820105 0.20229961
000130 22 73 2d be e8 0c 30 be 17 6a 03 3d 4c 1e e5 bb
       -0.16938451 -0.17192423 0.032083597 -0.006992137
000140 6b 9e 15 3e ac c2 22 3e ed 46 92 3d e1 70 01 be
       0.14611213 0.15894574 0.07142434 -0.12640716
000150 0a 20 1d be a9 36 c7 3d 04 38 47 3d e1 db 41 bd
       -0.15344253 0.097272225 0.048637405 -0.047328833
000160 1f 67 4c 3b 84 eb 2c 3e b1 f4 cc 3d 7c de 25 3c
       0.0031189395 0.16886717 0.10007609 0.010123845
000170 7d c3 47 be 8f dc 2c 3e 6b e2 f5 3d fd 5f ca bd
       -0.19508167 0.16881011 0.120060764 -0.098815896
000180 8b 26 02 be d3 7b c8 bd a8 15 15 bc c6 83 f4 bd
       -0.12710015 -0.097892426 -0.0090994015 -0.11939196
000190 8a 50 e4 3d 4c 70 4c 3e e1 65 dd 3d 2e b5 13 3e
       0.11148174 0.19964713 0.108104475 0.14424583
0001a0 34 9e 47 bd c4 a0 c3 bd dd 38 cd ba 0c d2 a6 bd
       -0.04873486 -0.09552148 -0.0015657205 -0.08145532
0001b0 12 04 4c be fe e3 33 be 52 75 01 3e c1 4c fd bd
       -0.19923428 -0.17567441 0.1264241 -0.12368155
0001c0 16 43 f7 3d cc 5b ab 3d 0c 25 41 be de b3 1b 3d
       0.120733425 0.08367118 -0.18861789 0.03801333
0001d0 96 eb 2d be 68 04 13 3e 8b 46 96 3c 49 67 d9 3c
       -0.169844 0.1435715 0.018344184 0.026538508
0001e0 b8 82 46 be 43 d6 4c be e8 94 bd bc c7 59 98 bd
       -0.19385803 -0.2000361 -0.023142293 -0.07438999
0001f0 d5 1d 2c bd c9 49 15 3e eb ae 0b bd 70 a0 81 3d
       -0.042020638 0.14578928 -0.03410236 0.06329429
000200 50 02 da bd 20 36 58 3e b3 14 2d be f7 bb 12 3e
       -0.10644972 0.21114397 -0.16902427 0.14329515
000210 78 07 59 bd da a2 4d bd ab db 9b bc 4f 2c 59 be
       -0.05298564 -0.050204135 -0.019025644 -0.21208309
000220 64 fc 87 3c 8d db 57 be fd 5a 2c bc f9 b5 3e 3c
       0.016599841 -0.21079846 -0.01051974 0.011640065
000230 a3 18 37 3e fc 83 07 3e b8 2f 69 3d 6d 3b 2a be
       0.17880492 0.13233942 0.056930274 -0.16624232
000240 dd 0d 52 be 73 cb e3 bd d3 4b 57 3e 7f e7 4e 3e
       -0.20513101 -0.11122789 0.21025018 0.20205496
000250 9f ea 28 3d e3 28 ac bd 47 18 40 3c 0b 8e 18 3d
       0.041239377 -0.08406236 0.011724538 0.037244838
000260 a4 81 39 bd dc e6 a1 bd 3b bc cb 3d 0b 4e 76 3d
       -0.04528965 -0.07905361 0.099480115 0.06013302
000270 b3 15 eb bd f4 86 0d 3d b6 7c e1 bc a0 2d 47 3e
       -0.11478748 0.03455253 -0.027525287 0.19450998
000280 9f 1b 8d 3c 13 c0 4d 3e fe 3e 00 3e 24 6b 50 3e
       0.017225085 0.20092802 0.1252403 0.20353371
000290 83 d8 67 3c 82 9e c6 3c fa 6e af ba 58 0d dd bc
       0.0141507415 0.024245504 -0.0013384514 -0.026983902
0002a0 c5 c1 21 be df 86 e3 3d 6f b5 e0 bd c2 78 a6 3d
       -0.15796573 0.11109709 -0.10972106 0.081285015
0002b0 29 5d 0a 3e a9 d3 d8 bd df bd f4 bd a0 da 86 3d
       0.135121 -0.10587246 -0.119502775 0.06584668
0002c0 37 3b 61 be ad ee 50 be 94 b9 54 3e 49 da 1f 3e
       -0.21995245 -0.20403548 0.20773917 0.15610613
0002d0 1f 14 36 3e 99 12 45 be 02 2a 3d be 3a d0 52 bd
       0.17781113 -0.19245376 -0.18473056 -0.05146811
0002e0 15 1b 00 3e ef 61 35 3d 35 c9 60 3b 69 b6 b1 bd
       0.12510331 0.04428285 0.0034299616 -0.0867737
0002f0 14 ac 5a 3e e3 f0 8d bd 8f af 24 be 90 e7 31 bd
       0.21354705 -0.06930711 -0.16082595 -0.043433726
000300 19 1b 10 bd 98 f8 01 be 1e ce 40 3e 01 4c ab 3d
       -0.035182092 -0.12692487 0.18828627 0.08364106
000310 24 82 a2 3d d0 96 49 3e 62 1b 51 3d 9e 96 22 bc
       0.079349786 0.19686437 0.051051505 -0.009923605
000320 bf c2 0d be fd 1e 8d bd ae 34 f1 bd 10 04 0f 3d
       -0.13843821 -0.06890676 -0.11777626 0.034915984
000330 15 54 9d bd 59 c4 34 3d 5c 3d 62 be e7 ce eb 3b
       -0.07682053 0.044132564 -0.22093719 0.0071962955
000340 c0 9d 44 3e 55 f9 53 be eb 7b ae 3c 2a 96 00 3e
       0.19200802 -0.20700581 0.021299323 0.12557283
000350 7a 95 44 3d 2c 25 9e 3d 45 32 46 3e 2b 4c d0 bd
       0.047994114 0.07721934 0.19355114 -0.10170778
000360 1f 24 1e 3d 8c f4 77 bd fb 02 93 bd 12 a2 09 3e
       0.038608667 -0.060535952 -0.07178303 0.13440731
000370 03 38 3a 3e 30 a5 d4 bd 6d bc db 3c 55 09 5c 3e
       0.1818543 -0.103830695 0.026823247 0.21487935
000380 18 c4 27 3e 5f 47 6d 3d 01 db 1d bc e3 b1 0e be
       0.16383398 0.057929393 -0.009634734 -0.13935046
000390 ea 79 94 3d b6 ad 54 3d 87 db d7 3d 1d fe 5c be
       0.07249816 0.051923476 0.105399184 -0.21581312
0003a0 3f 8c 21 3d 85 5a 31 bd 61 f4 18 3e 84 cf 0f 3d
       0.03944039 -0.043299217 0.14936973 0.03511001
0003b0 de 71 39 be c2 5c 13 bd 34 e9 38 3e 4b 0a b4 3d
       -0.18109843 -0.035977133 0.1805771 0.08791026
0003c0 58 9c 38 be be a1 d1 bd e1 39 85 3d 5a 03 49 3e
       -0.1802839 -0.10235928 0.0650518 0.19630185
0003d0 3d 61 f3 3c 1f 50 20 3d a2 17 de 3d 7f d0 a7 bd
       0.029709453 0.03913891 0.10844351 -0.08194064
0003e0 e0 95 32 be 6a 07 e9 bd 52 76 63 be 5a e0 5c 3e
       -0.17439985 -0.11378367 -0.22213104 0.21569958
0003f0 2a ca 8f bd f9 f2 54 bd 4c 6b 15 bd 7f c7 5b bb
       -0.070209816 -0.05198953 -0.03647928 -0.0033535657

onnx::LSTM_119 f4 [1, 160]
000000 3a d3 47 be 04 24 48 3e b6 63 9f bd c7 95 cf 3c
       -0.1951417 0.19544989 -0.0778269 0.025339974
000010 7e f1 16 3b 90 2d 1a be e1 55 7c 3d 79 31 e6 3d
       0.0023032124 -0.15056443 0.061605338 0.11239905
000020 56 2b 15 be 80 91 31 3e 86 70 0e 3e b4 60 43 3e
       -0.14567313 0.1734066 0.13910112 0.19079858
000030 d6 0f c8 3d 38 d4 40 3c 6e a0 3e 3e 27 1f 82 3c
       0.097686455 0.011769347 0.18615887 0.015883995
000040 0b 2d 4e be a6 36 51 be 0d c3 dc 3d f0 b6 f3 bd
       -0.2013437 -0.20431003 0.107793905 -0.11900127
000050 0a 06 67 3d a2 99 5f bd aa 36 7f 3d a5 50 b3 bd
       0.056402244 -0.054589875 0.06230799 -0.08755616
000060 8c 06 28 3e 41 09 54 3e 0a 46 c3 3d 5d ce 5b 3e
       0.16408747 0.20706655 0.09534843 0.2146544
000070 48 b1 5b 3e ee be b6 3d 44 85 63 bd e1 f3 db 3d
       0.21454346 0.08923136 -0.055547014 0.107398756
000080 74 14 c3 bc 48 8e 05 be a4 59 d8 bd 0d 7d 98 bd
       -0.023813464 -0.13042557 -0.105639726 -0.074457265
000090 21 fd 9c bd ad 95 c6 bc e3 ad 8c bb 73 8d 13 be
       -0.07665468 -0.024241293 -0.00429319 -0.14409427
0000a0 ae 74 c7 3d aa 54 0e be e6 d4 88 bb d7 ef 8d 3d
       0.09739052 -0.13899484 -0.00417577 0.069305114
0000b0 f8 7b ac 3c df 90 54 be 8b 46 fa 3d 5f ff 7c 3d
       0.021055207 -0.20758389 0.12220486 0.06176698
0000c0 6a 8b 0f 3e 72 5e b7 bc 51 f6 5e bd 60 c2 67 bd
       0.14018026 -0.022383902 -0.054434124 -0.056581855
0000d0 52 68 9e bc 11 0f 4b be d8 46 ef bc 12 fb 41 3e
       -0.019336853 -0.19829966 -0.029208586 0.18943432
0000e0 22 17 c1 3d dd cb aa bd b0 68 42 3e 14 1f db 3d
       0.0942824 -0.08339665 0.18985248 0.10699287
0000f0 6a 15 58 3c 2f 2d cf 3d 91 98 80 bc 1f 5f 5f 3e
       0.013188699 0.1011604 -0.01569775 0.2181363
000100 08 fd 2b be 60 1e 3f be 17 31 f8 3c 13 91 30 be
       -0.16795743 -0.18663931 0.030296845 -0.17242841
000110 6d da 08 3e 4c 70 d0 bd 64 7f 1c be 14 00 f1 3d
       0.13364573 -0.10177669 -0.1528297 0.11767593
000120 af 56 bc bd 72 b7 51 3e 80 f0 cd 3c 91 91 28 be
       -0.09196221 0.20480135 0.025139093 -0.16461779
000130 5a c0 2c be fe 08 86 3d db 0b 4c be 3b 88 2a 3e
       -0.16870251 0.06544684 -0.19926398 0.1665353
000140 4b fc cb 3d 03 c1 d5 3d f3 ce 0b be 08 9f 1c be
       0.099602304 0.10437205 -0.13653164 -0.1529504
000150 da 0a c3 3d 31 31 73 bd af 81 15 3e a4 e4 31 be
       0.09523554 -0.059373084 0.14600252 -0.17372376
000160 2f 78 4c be 03 e5 2d be d5 61 59 bd 13 1b 26 be
       -0.19967721 -0.16981892 -0.053071816 -0.16221265
000170 59 8a 23 3c 7d 5b 3e 3e db 3b 61 be ee 22 1b 3e
       0.009981715 0.18589588 -0.2199549 0.15150043
000180 40 35 14 be 5d 1d d7 3d a9 2a d9 bd 5e c8 13 bc
       -0.14473438 0.105036475 -0.1060384 -0.009019939
000190 55 8a b9 3b 8e 1c 26 3e 1b 1c a8 bd 3e cb 5c bd
       0.0056622424 0.1622183 -0.08208486 -0.053904764
0001a0 ff 53 59 bd dd 17 05 be ef 36 3a 3e e3 30 38 bd
       -0.05305862 -0.12997384 0.18185018 -0.044968497
0001b0 d2 66 48 be 7b 9c 1f be 7b a2 66 3b 38 11 52 be
       -0.19570473 -0.15587036 0.003519206 -0.20514381
0001c0 2e 96 09 bd fb f2 76 3d 03 c3 64 3e 7b e2 2d 3e
       -0.033590488 0.060290318 0.22340016 0.16980927
0001d0 28 bd 20 3e d6 87 2d 3e 11 eb 64 3d a6 3b 5a be
       0.15697157 0.16946349 0.05588824 -0.21311817
0001e0 6e f9 53 3e a3 8b 8f bd fd 8d dc bd 95 87 33 bc
       0.20700619 -0.070090555 -0.107692696 -0.010957618
0001f0 8c af 82 3c 0c 73 a2 3d e9 17 bd 3d b9 5d 92 3d
       0.015952848 0.079321 0.09233076 0.071467824
000200 1a 5f e5 3d 5f 57 db bd fd 79 be bd 7e eb b3 bd
       0.1119978 -0.10710024 -0.09300611 -0.08785151
000210 86 db dd bd c2 b2 80 bd 33 5b 0f 3e 5b 57 5a 3d
       -0.108328864 -0.06284095 0.13999633 0.053305965
000220 4f fe 32 3e a4 3e 00 be 09 0c 7d 3d d0 08 cc bd
       0.17479824 -0.12523896 0.061779056 -0.09962618
000230 0d 2f 48 3e b9 77 0f be ab d8 28 3e 9c db 5a be
       0.19549198 -0.14010514 0.16488902 -0.21372837
000240 03 6b 99 3d 36 f3 fa bd a3 b8 05 bc 6a 04 42 3e
       0.07491114 -0.1225342 -0.008161697 0.18946996
000250 f7 1f 62 be 65 e6 a6 3d d8 0b 61 bb 99 c3 e3 3d
       -0.22082506 0.08149413 -0.0034339335 0.11121292
000260 08 d5 6e bd 5c 8a 25 be f7 de 5e be d6 7f 04 bd
       -0.05830863 -0.16166061 -0.21764742 -0.032348476
000270 67 a5 a2 3d 87 1f c5 bd d5 d3 55 3e ea e3 0a bd
       0.07941704 -0.09625154 0.20881589 -0.033908762
