LDSP-lite/src/main/assets/lstm_model[2].onnx (onnx, 26527 bytes, 7 tensors)

dense.weight f4 [1, 20]
000000 0f 5d ea 3d f1 21 ea 3d ff 9d ab bd 24 e8 d3 3d
       0.11443531 0.11432255 -0.08379745 0.10347012
000010 d9 81 3c be ad 7e a1 3d 30 e6 a7 bd b3 5b b4 bd
       -0.18408908 0.078854896 -0.08198202 -0.08806553
000020 6e f5 3c be c5 60 a2 3d b9 01 0b be 64 34 27 3e
       -0.18452999 0.079286136 -0.13574876 0.16328579
000030 42 d1 d1 3c 65 b2 4d be ba bc b2 3d 57 0c 01 3d
       0.025612477 -0.20087583 0.08727403 0.03150591
000040 6c fd 41 be 53 ba d7 3d 7f c7 45 3e 95 36 c4 3b
       -0.18944329 0.105335854 0.19314383 0.005987952

onnx::LSTM_213 f4 [1, 80, 1]
000000 a2 ae c5 3c 8e 3d 4b 3e fd 05 1c bb 64 41 09 be
       0.024131123 0.198477 -0.002380728 -0.13403851
000010 c7 96 40 be 65 3d 4e bd b2 0d 37 bd 00 ba 31 bd
       -0.18807517 -0.05035152 -0.044690795 -0.043390274
000020 25 a4 0c be d6 e3 12 be ab 5c 1f be 5f 1d 5e be
       -0.13734491 -0.14344725 -0.15562694 -0.21690892
000030 73 35 0d 3d 35 56 46 3e 57 af ab bd 96 f1 4b be
       0.0344748 0.19368823 -0.08383053 -0.19916376
000040 ed 92 7e bd 14 ef 12 be 24 bf 4a be 34 68 29 3d
       -0.062151838 -0.14349014 -0.19799477 0.04135914
000050 de d2 d1 3d 86 3b df bd cc f0 4f be 96 12 a0 bd
       0.10245298 -0.10900025 -0.203067 -0.07816045
000060 b3 5c cf 3b ba 94 e6 3d 7d 1e 25 3d ed 49 34 3d
       0.0063281893 0.11258836 0.04031228 0.044015814
000070 4c c0 06 3d f8 13 af bb 5f a2 58 bd 6f d8 36 3e
       0.032898232 -0.0053429566 -0.052889224 0.17856
000080 a0 37 58 be 9c f2 eb bd fc b6 36 be e3 36 d9 bd
       -0.21114969 -0.115208834 -0.1784324 -0.10606172
000090 16 e3 1c be 26 8d 64 3e 3e 58 11 be 43 9d 88 3d
       -0.15321001 0.22319469 -0.14193818 0.0667062
0000a0 ed aa 8d bd 64 e0 8a bd 27 2b 8f bd 6a 30 1a 3b
       -0.06917367 -0.0678108 -0.069906525 0.0023527392
0000b0 67 da da bd 7f c4 0a 3e f4 fc a6 bd 3a 1f 20 be
       -0.10686188 0.1355152 -0.08153716 -0.15636912
0000c0 da 10 0c 3e e1 52 0f 3e 5b 68 f5 3d 51 2e 40 be
       0.13678303 0.1399646 0.11982795 -0.18767668
0000d0 f3 d6 0d 3d d1 aa f9 bd d5 95 02 be 66 4c 52 3e
       0.03462882 -0.12190784 -0.12752469 0.20536956
0000e0 66 1a c5 3d d2 06 11 3e 5d 03 5a bb 1e 64 5b be
       0.09624176 0.14162758 -0.0033266165 -0.2142491
0000f0 f6 9d ec bb 47 f6 c8 bc 95 3c 2e bd c3 a0 ee 3d
       -0.007220979 -0.024531497 -0.042538244 0.116517566
000100 39 67 37 bd 32 5b 24 bb 04 06 34 3e 53 58 5d be
       -0.044776175 -0.002507877 0.1758042 -0.21615724
000110 4e 36 0c be b4 b0 51 3e 16 44 2f be 19 ce 5e 3d
       -0.1369259 0.20477563 -0.17115816 0.05439577
000120 89 0d c2 bd ff e6 29 3e ea 34 c8 3b ce 3f 01 be
       -0.09475238 0.16592024 0.0061098235 -0.12621996
000130 72 af 37 3d cb 08 47 be 6e 25 d8 bd b8 e1 b8 3d
       0.044845052 -0.19436948 -0.10554014 0.090274274

onnx::LSTM_214 f4 [1, 80, 20]
000000 d2 bc 90 bc b6 92 eb bd 99 d9 47 bd ca 39 05 3e
       -0.017668162 -0.11502592 -0.0487915 0.13010326
000010 49 c9 2e 3c 85 ee 12 3d e8 e6 5c 3e 29 c3 69 bd
       0.010668107 0.035872 0.21572459 -0.057070885
000020 d2 22 38 3e 67 bc 4f 3d 09 65 06 3e 0a d1 80 bd
       0.17982033 0.050716784 0.1312448 -0.06289871
000030 8d fe 76 bd 30 d9 6b bd b3 84 92 b9 ab a1 03 3e
       -0.060301352 -0.057580173 -0.0002794616 0.1285464
000040 80 4b 0c bd cf 9b ad 3d 08 e5 ee 3d 33 27 be 3c
       -0.03425169 0.08476984 0.11664778 0.023212051
000050 67 79 10 3d c3 09 27 be e0 8b 80 bc 75 55 01 3d
       0.03527203 -0.16312318 -0.015691698 0.03157564
000060 72 60 b8 3d dc 8d 3d be f0 46 3e be ed 83 46 bd
       0.090027705 -0.18511146 -0.18581748 -0.048465658
000070 6c 6e 82 3d ef d7 02 bd 35 97 09 3e 6e b6 48 3e
       0.063687176 -0.03194421 0.13436587 0.19600841
000080 69 0c b8 bb c3 ff 00 3d 28 e6 fa bc 89 1a 04 be
       -0.005616714 0.031493913 -0.030627325 -0.12900747
000090 ed 3a 3f 3e 87 f1 ff bd ff 2b 28 be 44 80 99 3d
       0.18674822 -0.124972396 -0.16423033 0.07495168
0000a0 4e 1c 13 3d 47 5d ca 3c a6 d2 14 be e7 62 42 3e
       0.035915665 0.024702681 -0.14533481 0.18983041
0000b0 db fb ca bd 53 59 ad 3d e0 b6 a3 bd 20 2b 35 3e
       -0.09911319 0.08464303 -0.07993865 0.17692232
0000c0 e7 a6 78 3d 81 55 b9 3d da c2 c2 bd 4b d8 6a bd
       0.060706045 0.09049512 -0.09509821 -0.05733518
0000d0 3c 54 f6 3d f9 92 62 3e dc 3b d8 bd ad bd 35 be
       0.12027785 0.22126378 -0.10558292 -0.17748137
0000e0 17 75 f7 bc 96 0b 01 3e e4 bc 09 be 95 9d 58 3e
       -0.0302072 0.12602076 -0.13450962 0.21153863
0000f0 a7 0c 0c 3e e8 ee a7 3d 9c 74 c6 3d c3 c5 f9 bd
       0.13676701 0.081998646 0.0969021 -0.12195923
000100 5d 2f 19 3e 58 97 2d be 66 13 74 bd a4 47 12 be
       0.14959474 -0.16952264 -0.059588812 -0.14285141
000110 6d 5a 01 be 94 93 27 3e b9 28 4e be 0d 30 4c be
       -0.12632151 0.1636489 -0.20132722 -0.19940205
000120 ff 19 76 bc 42 9d 42 be 11 1d 9e bd 16 35 52 be
       -0.015020846 -0.19005302 -0.07720388 -0.20528063
000130 c7 7d e5 bd 6f c8 a6 bd 80 be c8 bd 2f 6a 36 be
       -0.11205631 -0.081436984 -0.0980196 -0.17813943
000140 87 9f 4e bc 6f ea 25 3e 3c ea a3 3d 3d 79 31 3e
       -0.0126112765 0.1620271 0.08003661 0.17331405
000150 1b ca 42 3c 0f 5e 5f be d9 52 ce 3d a1 e0 39 3e
       0.011889006 -0.21813224 0.10074396 0.18152095
000160 13 8d 1d 3c 53 03 a8 bd ac e8 bc 3d 84 bb f8 bd
       0.009616154 -0.08203759 0.09224066 -0.12145141
000170 39 8b 19 be dc 58 8b 3d d9 94 0f bd f8 a5 10 be
       -0.14994515 0.06804058 -0.03505406 -0.14125812
000180 9f 44 1d be ad 3e cc 3d 6b 08 3a 3e 3f 41 cc 3d
       -0.15358208 0.09972892 0.18167274 0.09973382
000190 ac a3 e1 3b c3 a7 a1 3d 69 1f 05 3d dc 63 52 3e
       0.0068859663 0.07893326 0.03250066 0.20545906
0001a0 48 5e 58 3d a2 f7 00 3e 8f d1 b5 bd 50 55 f7 bd
       0.05282429 0.12594464 -0.08877861 -0.12076819
0001b0 06 6a 1c 3d c2 70 3a bd 89 e4 97 bd 52 1f 22 3e
       0.03818705 -0.04551769 -0.074166365 0.1583226
0001c0 c0 3b e7 3d 8a 9d da bc c4 94 5c 3a 4e 76 d7 3d
       0.11290693 -0.026686449 0.0008414502 0.10520612
0001d0 62 1a 32 3e 46 b5 98 3d 1a 71 e5 bd 83 ae 44 be
       0.17392877 0.0745645 -0.11203213 -0.19207196
0001e0 2a 58 c3 bd 04 db 53 be 7a c2 96 3c 9b ce 5a be
       -0.095383 -0.20689017 0.01840328 -0.21367876
0001f0 e5 a7 bc 3d 2b bf 7c 3d 2c 8f 4b bd d4 f3 fb 3a
       0.09211711 0.06170575 -0.049697086 0.0019222447
000200 7e b8 22 bc 64 15 3c 3d cd 02 27 3e 43 d5 be 3d
       -0.009931682 0.045918837 0.16309662 0.0931802
000210 f2 38 79 3c 3b ee 37 be 18 5d 27 be c2 9a 02 3e
       0.015211331 -0.17961971 -0.16344106 0.12754348
000220 df 87 df 3d a3 9c 1c 3e b0 3c 42 3e 53 e3 c6 bd
       0.10914587 0.15294127 0.18968463 -0.097113274
000230 9c 01 d0 3d 4a 14 72 bc 42 66 05 be 4f a9 49 3e
       0.10156557 -0.014775345 -0.1302729 0.19693492
000240 50 0c 6d bc 69 ae 10 be f4 18 5a be 5a 24 bf bd
       -0.014468268 -0.14129032 -0.21298581 -0.093331054
000250 71 e7 8f 3d 9c 5f c1 bd 04 98 b2 3d cc da be bd
       0.07026566 -0.09442064 0.08720401 -0.09319076
000260 3a 15 18 3e 68 5c 82 3d f9 60 05 3e 6b 12 36 3d
       0.14851847 0.06365281 0.13025273 0.04445116
000270 9e c7 ff bd bc 61 14 3d de 66 da bc 26 a9 94 3d
       -0.12489246 0.03622602 -0.026660379 0.07258825
000280 39 2d 54 bc 37 ad ba 3d 21 5a 4c 3e 08 72 70 bb
       -0.012950235 0.09115069 0.19956256 -0.0036689062
000290 95 c4 44 be 13 b9 88 bd 98 2e a1 bd b0 e1 0d 3e
       -0.19215615 -0.06675925 -0.07870215 0.13855624
0002a0 1b 21 64 be ca 52 24 3e 52 0a 1c 3d c5 93 a4 3b
       -0.22278254 0.16047207 0.03809578 0.0050224983
0002b0 3b ed 2a be 62 54 ec bd 5a f5 08 3e 86 db 54 3e
       -0.16692059 -0.11539532 0.13374844 0.20786867
0002c0 13 08 97 bd 80 5a 0a 3e 13 c1 7f 3c 02 3c 88 3c
       -0.07374587 0.13511086 0.015609997 0.016630176
0002d0 ba 37 70 3d e3 f7 84 3b 67 13 61 3e 47 4b b3 bd
       0.058646895 0.0040578707 0.21980058 -0.087545924
0002e0 38 e4 4b 3e db e5 9a bd 17 a1 80 bd 9e f1 38 3e
       0.19911277 -0.07563373 -0.062807254 0.1806092
0002f0 4b 8d c7 bd bd ac 2a 3e 4a fa 0e be 13 fa 28 3e
       -0.09743746 0.16667457 -0.13962665 0.16501646
000300 2d 28 10 3d 66 a4 23 be 5c 94 48 be 09 28 eb 3d
       0.035194565 -0.15980682 -0.19587845 0.114822455
000310 3e cd 2b be d8 50 1f 3d c8 ee 35 be fa c9 17 be
       -0.16777512 0.038895458 -0.17766869 -0.14823142
000320 48 aa d1 3d 4e 3a 36 be ae 0f bf 3d d3 ef 51 be
       0.10237557 -0.17795679 0.093291625 -0.20501642
000330 04 d1 23 be 19 aa df bc 44 52 05 3e 9b be 44 3e
       -0.15997702 -0.027302789 0.13019663 0.19213335
000340 88 b2 9d bc 90 35 30 be 57 64 1b 3e 45 ce 14 3e
       -0.01925017 -0.17207932 0.15174995 0.1453181
000350 9c e2 01 3d ef 9a 84 bd b9 d5 6b 3c f3 f4 a2 bd
       0.031710252 -0.06474864 0.014394217 -0.079568766
000360 31 91 fd 3d 49 1b e9 bd cf 2e 08 be dd 81 ab bd
       0.12381209 -0.11382157 -0.13299106 -0.08374379
000370 19 a0 17 3e 56 fe ec 3d 53 6d 7a bd 51 12 2d 3e
       0.14807166 0.11571948 -0.061139416 0.16901518
000380 be b9 0e bd 17 54 c7 3d a7 09 1a 3e 1c 74 67 3d
       -0.034845106 0.09732836 0.15042745 0.056507215
000390 29 a6 51 bd 30 5c 64 3e a0 00 0c 3e 4d 66 de bd
       -0.051183853 0.22300792 0.13672113 -0.10859356
0003a0 41 6f cb bc 3b 1d f2 3d 33 e2 34 3e ed 95 18 bd
       -0.024833323 0.118219815 0.17664413 -0.037252355
0003b0 64 ee 5d 3e 09 e4 ce 3d 35 6b 4c be f7 54 4f be
       0.2167297 0.10102088 -0.19962771 -0.20247255
0003c0 fe 68 da 3d 3a e6 0b be 21 91 e1 bd 4d fd 9e 3c
       0.10664557 -0.13662043 -0.11014009 0.019407893
0003d0 ac d3 19 3e b3 88 da bd 44 53 1d be 64 41 3f bb
       0.15022153 -0.106706046 -0.15363795 -0.0029183263
0003e0 b7 c5 f0 3d e2 3e 3c be b5 a2 27 3e a3 a1 5f 3e
       0.11756461 -0.18383363 0.16370662 0.21839003
0003f0 16 f3 0f be d3 a3 55 be 27 8c f8 3c 7f ff cc bd
       -0.14057574 -0.20863275 0.030340267 -0.100096695

onnx::LSTM_215 f4 [1, 160]
000000 de 66 9e 3b 15 55 12 be f1 40 3d bd 8c 77 47 3e
       0.00483404 -0.14290269 -0.04620451 0.19479197
000010 7b 02 53 be cc e4 41 bd 58 00 19 3e e2 58 89 3d
       -0.20606415 -0.04733734 0.14941537 0.06706406
000020 e2 5f 7b 3d 3b 56 d7 3a 71 00 61 be 0a 44 06 3e
       0.061370738 0.0016428897 -0.21972825 0.13111892
000030 76 35 6f bd a7 8e bb bd 8e 45 18 be dd 0c 19 be
       -0.058400594 -0.09158068 -0.14870283 -0.14946313
000040 7b 1b 93 bd 28 d7 b3 bd d3 35 11 3e ba 68 15 be
       -0.07182976 -0.08781272 0.14180689 -0.14590731
000050 b7 d6 c5 bd c1 29 5a 3e da 4a 73 bd 2b f7 b0 bd
       -0.09660094 0.2130499 -0.059397556 -0.086408935
000060 c6 2e 2e be b9 1c 35 3e 13 bb 0a be 85 15 bd bd
       -0.1701003 0.17686738 -0.13547926 -0.0923262
000070 b8 6d 55 be 1f 24 69 3d 2b e4 3a bd 8e c6 42 3d
       -0.20842636 0.056919213 -0.045627754 0.047552638
000080 8f 47 d1 bd 4d dd 0e 3e 88 06 17 be 91 f1 02 3e
       -0.10218727 0.13951607 -0.14748585 0.12787463
000090 30 b4 04 3d 92 ae 94 3d 8f 6c a7 3d 10 3a 48 be
       0.032398403 0.07259859 0.08175003 -0.19553399
0000a0 40 3a c7 bb fd b1 04 3e a4 cc 02 be 91 c5 2e be
       -0.006079942 0.12958522 -0.12773377 -0.17067553
0000b0 1d cd 1e 3d 32 ed 76 3d 42 7a e5 bc 28 6b 8d bd
       0.03876983 0.0602848 -0.028012399 -0.06905204
0000c0 b3 b4 88 bd 60 f8 f6 3c 08 ad 56 3e bd 69 d5 bc
       -0.06675091 0.030147731 0.20964444 -0.026051397
0000d0 92 f7 ae 3c 03 99 30 be 44 69 76 3c 03 05 2c bc
       0.021358285 -0.1724587 0.015039746 -0.010499242
0000e0 47 3d 2e 3e fc a3 07 3e 41 24 8b 3d e4 00 40 3e
       0.17015563 0.13246149 0.06794024 0.1875034
0000f0 f2 3e 24 3e e3 d7 35 3d 84 5d ff bd b8 3c 8f 3c
       0.16039637 0.04439534 -0.124690086 0.017485008
000100 42 48 46 3e be a0 08 3e d9 28 2e bd 9d 0a 20 be
       0.19363502 0.13342568 -0.042519424 -0.15629049
000110 3b 78 30 3d a0 62 f5 bd 86 2e 43 be 37 32 f5 3d
       0.04308341 -0.11981702 -0.19060716 0.11972468
000120 54 3e 64 be 43 da 71 bd 08 7f d3 bb de 15 eb 3d
       -0.22289401 -0.05904604 -0.0064543523 0.1147878
000130 a3 d7 39 be 26 6a 1f 3e 49 94 5a 3d bd b4 bb 3d
       -0.18148665 0.15567836 0.053364072 0.091653325
000140 84 9c b3 3d 86 34 26 3e 7b d4 c5 3b c7 eb 10 bd
       0.08770087 0.16230974 0.0060372925 -0.035381105
000150 f7 71 0e bd 9c 92 42 3e ab 24 48 be 1b eb 1f 3e
       -0.034776654 0.1900124 -0.19545238 0.1561703
000160 53 db 57 3e a9 cc 2e be a5 b3 1f be e0 c9 c0 3c
       0.2107976 -0.17070259 -0.15595873 0.023533762
000170 ba b3 00 3e f6 70 10 bd 4a ce 0d 3e c3 14 30 be
       0.1256856 -0.035263978 0.13848224 -0.1719542
000180 05 38 0d bd e5 25 61 3d 66 ba c4 3c 4b f4 4f 3e
       -0.034477253 0.05496778 0.024014663 0.20308034
000190 62 3c 5e be d8 45 31 be 52 82 dd bd 49 d4 be bd
       -0.21702722 -0.173118 -0.10815872 -0.09317834
0001a0 e5 1d 29 be ce ba fa bd e7 00 d2 bd 51 69 37 be
       -0.1651531 -0.122426614 -0.10254078 -0.17911269
0001b0 7d 5d 95 3c 0b 49 06 be f1 23 9f bd 1d dd 30 be
       0.018233055 -0.13113801 -0.07770527 -0.17271848
0001c0 70 21 2c bd 48 98 c9 3d 56 ba 31 3e 48 07 11 be
       -0.042024076 0.098434985 0.17356238 -0.14162934
0001d0 51 41 06 be 01 f0 84 bd 23 37 22 3e ef 7d 4e 3e
       -0.13110854 -0.064910896 0.15841345 0.20165227
0001e0 24 57 b2 ba 00 8f 94 bd 66 9a 05 3e e1 45 34 3e
       -0.0013606292 -0.072538376 0.1304718 0.17604782
0001f0 62 35 35 3d 7b 34 df ba f6 54 1b be 36 b9 87 bd
       0.044240363 -0.001702919 -0.15169129 -0.06627123
000200 a8 2d 3f bd bc 5d 4f 3d 52 8f 1a 3e 60 f5 25 bd
       -0.0466744 0.0506265 0.15093735 -0.04051721
000210 67 a0 95 bc 88 cd f9 3c 03 3f eb 3d 4a 80 80 3d
       -0.018264962 0.030493513 0.11486628 0.06274469
000220 6a 2a a0 bd 13 a5 2e be 65 69 47 3e 4c 73 14 be
       -0.0782059 -0.17055158 0.19473799 -0.14497107
000230 0a 44 30 be f7 3e 58 3e cf b6 0f bd b3 29 9e 3d
       -0.17213455 0.21117769 -0.03508645 0.07722797
000240 81 8b 53 be 98 a0 19 be b2 43 dc 3d 99 21 89 bd
       -0.20658685 -0.15002668 0.10755099 -0.06695861
000250 3a a1 ac 3d 3a 29 2c be 15 f4 c8 bd da f4 19 bd
       0.08429189 -0.16812602 -0.0981218 -0.037587024
000260 35 34 3c be f0 e4 e1 3d 28 ac 86 bd 58 5c 25 bd
       -0.1837929 0.110299945 -0.06575805 -0.04037127
000270 15 4b 36 be ed 32 75 3d 7e 56 46 be cd 14 18 be
       -0.17802079 0.05986302 -0.19368932 -0.14851685

onnx::LSTM_235 f4 [1, 80, 20]
000000 c7 35 ec bd ca ef ae bd c3 4b 5f 3e 45 82 14 bd
       -0.11533695 -0.0854183 0.21806245 -0.036257047
000010 7a 58 3a 3e 5f 29 68 3d 50 72 b4 3d ae 26 26 be
       0.18197814 0.05668008 0.08810866 -0.16225693
000020 ca 33 3d be ee cd 47 3e 10 ca 1b bb 7e 3b 47 be
       -0.18476787 0.1951215 -0.0023771562 -0.19456288
000030 a8 0c cc 3d 94 f1 55 bd 41 25 e2 bc 60 88 aa 3d
       0.099633515 -0.05223234 -0.027605655 0.08326793
000040 23 8b d4 3b 7c cd 42 3d fc c4 40 3d d8 fb 4b 3d
       0.006486313 0.047559246 0.04706286 0.049800724
000050 08 bc 2b be 37 8c 4e 3d 85 f9 c0 3d 08 ef a5 bb
       -0.16770947 0.050426688 0.09422592 -0.005063895
000060 25 99 75 3d 28 55 94 bd 02 9f b5 bc 0e 7c 31 be
       0.059960503 -0.07242805 -0.022170547 -0.1733248
000070 5f 80 02 be 00 fc 9e bd c4 84 f3 3d d4 68 f4 3d
       -0.12744282 -0.07762909 0.118905574 0.11934057
000080 45 16 bb 3d 5c 87 71 bd ac 92 6d 3d 5c 19 0e bc
       0.09135107 -0.05896698 0.058001205 -0.008673038
000090 c5 87 24 3e e6 af 04 3e 40 e4 54 be c3 c2 18 bd
       0.16067417 0.12957725 -0.20790195 -0.037295114
0000a0 9f 23 32 3e ee ff fa 3d ef d5 01 3e 3b cf d8 bb
       0.17396401 0.12255846 0.12679265 -0.0066165007
0000b0 28 7c ec 3d 39 2a 62 be bd d9 8b 3c a9 1e 00 3e
       0.115471184 -0.22086419 0.0170716 0.12511696
0000c0 a0 75 0d be 3d 89 0e 3e 0d 56 4c 3e b4 73 31 be
       -0.13814402 0.1391954 0.19954701 -0.17329293
0000d0 d1 ac d3 3d 38 bd e0 bd 26 9f 36 bc ff be 15 3e
       0.103356965 -0.109735906 -0.011146342 0.1462364
0000e0 22 1c b8 bd 97 67 3e be b2 05 06 be 29 08 98 3c
       -0.08989741 -0.18594204 -0.1308811 0.018558579
0000f0 d6 af cd bd bc 71 45 be ad b3 30 3e 0e c9 1c 3d
       -0.10043304 -0.19281667 0.17256041 0.03827768
000100 4a 44 13 3e 80 40 50 bd d2 bc dd bb 62 c2 56 be
       0.14381519 -0.050842762 -0.006766894 -0.20972589
000110 ed 16 1c 3e 17 61 d0 3d aa c6 1b 3e 16 92 4b be
       0.1524312 0.101747684 0.15212503 -0.19879946
000120 95 34 bb bd 41 01 40 3e fe 32 3c bc 92 5f e0 bd
       -0.091408886 0.18750478 -0.011486767 -0.109557286
000130 6f be 0f 3e 48 1d a9 3d 76 38 0a be 05 4e 30 3e
       0.14037488 0.08257538 -0.134981 0.17217262
000140 54 f7 60 3e 76 ff 27 be 74 90 8b 3d f2 a7 04 bd
       0.21969348 -0.16406044 0.068146616 -0.032386728
000150 4b be 00 be dd 26 5d be 34 bb 12 be 06 43 36 bc
       -0.12572591 -0.21596856 -0.14329225 -0.011124378
000160 71 ea 9a bd 3b 87 23 3e 35 1c 8b 3d 7d 08 60 3e
       -0.075642474 0.15969555 0.067924894 0.21878238
000170 2a c6 a5 3c a8 00 34 3e 18 29 8d 3d d8 06 07 3d
       0.020236094 0.17578375 0.06892604 0.03296551
000180 59 71 f1 3d f4 d7 63 be 34 a2 2f 3e 81 a8 fe bc
       0.117891975 -0.22250348 0.1715172 -0.031086208
000190 b6 77 64 3d 3e d9 31 3e 11 08 f6 3d 4c f9 51 3e
       0.055778228 0.17368028 0.12013257 0.20505255
0001a0 6c 29 19 bd 93 f3 e4 3d b1 5f b0 3c 3c af 48 3e
       -0.03739302 0.111792706 0.021530004 0.19598097
0001b0 3f f7 8d 3d 4a 30 08 be 28 44 d4 3d 9b 1f bb 3d
       0.06931924 -0.13299671 0.10364562 0.09136888
0001c0 cf 41 88 3d 24 16 68 3d ce 51 38 be aa 98 a7 bc
       0.06653177 0.05666174 -0.17999956 -0.020458538
0001d0 c1 2c 17 be 63 6b 55 bd 8e 73 e9 3c 62 5c 42 be
       -0.14763166 -0.052104365 0.028497484 -0.18980554
0001e0 6c e7 d0 3d b1 d6 4b 3e 0f c3 d1 3d ad e9 5e 3e
       0.1020039 0.19906117 0.102422826 0.21768828
0001f0 41 e5 48 be 06 7c f7 bd b9 10 5a bd 92 32 0a be
       -0.19618703 -0.120842025 -0.053238604 -0.13495854
000200 7e 12 62 3e 72 c9 ee 3d 39 7d f7 3d 90 79 3a 3d
       0.22077367 0.116595164 0.12084431 0.045526087
000210 e0 09 57 3e 24 24 06 be 83 a7 29 be e8 b3 2c 3e
       0.20999861 -0.13099724 -0.16567807 0.16865504
000220 9c b8 25 be 6c f7 47 3d bf 25 7c bd ac 07 0e 3e
       -0.16183704 0.048819944 -0.061559435 0.13870114
000230 db 08 eb bd 82 75 df bd 30 c8 67 bd 0d ba 4f be
       -0.114762984 -0.10911085 -0.056587398 -0.20285816
000240 f5 5e 8d bd 74 56 39 3c 7a a2 27 3e d7 ce 9a 3c
       -0.06902877 0.011312116 0.16370574 0.018897457
000250 3d bb 54 3e 0a d3 cd 3c 78 43 63 bd d8 3a 55 3e
       0.2077455 0.025125045 -0.055484265 0.20823228
000260 be 17 9f 3b f1 b3 2d 3e 24 ad be bb c3 e3 64 3e
       0.004855125 0.16963173 -0.00581898 0.22352509
000270 50 eb 3b 3e 7b 4c ab 3d 81 42 1e be 5c 71 10 be
       0.18351483 0.08364197 -0.15455057 -0.14105743
000280 3c 92 4f 3e e9 44 a0 3d f6 f3 9b bd 07 aa 8a bb
       0.20270628 0.078256436 -0.07614891 -0.0042316946
000290 2e 19 c4 bd 69 8a 51 3e e0 20 5c 3e d0 85 13 be
       -0.09575115 0.20462956 0.21496916 -0.14406514
0002a0 98 a1 97 bd 05 23 dc 3d a2 c3 5c be 94 a0 ee 3d
       -0.074038684 0.10748867 -0.21559003 0.116517216
0002b0 7a 80 e6 bd d3 1b 10 3d c5 5c c6 3c 42 fe fe 3d
       -0.11254974 0.035182785 0.024214158 0.124508396
0002c0 9e 73 32 be a1 a5 f7 3d c8 65 10 3b d1 8a 91 bc
       -0.17426917 0.12092138 0.0022033323 -0.017766388
0002d0 c6 77 2a bd df 2c 3c 3d 0d 97 48 be 77 d3 c0 bd
       -0.04161813 0.04594123 -0.19588871 -0.09415334
0002e0 24 84 5b 3e a9 a8 e7 3d 7d 5a a0 3d fe fd 0b 3e
       0.21437126 0.11311466 0.07829759 0.13671109
0002f0 50 6e 59 be 1d 45 e8 3d e8 9d 18 3e 66 96 bc bd
       -0.21233487 0.11341307 0.14903986 -0.09208374
000300 c1 a7 f8 3d 3d 66 24 3e 5e 69 3b be 10 3a 3d 3c
       0.121413715 0.16054626 -0.18301913 0.011549488
000310 07 43 38 3e e0 53 b5 bd 79 1d be 3c 26 0e 49 3e
       0.17994319 -0.088538885 0.023207413 0.19634303
000320 18 7f 48 3e 94 99 ed bc f0 12 a0 bd 36 ef 0d 3d
       0.19579732 -0.029003896 -0.07816112 0.034651957
000330 b5 82 bd 3d 71 b7 28 bb 5e 93 9e 3a 91 c6 e8 bd
       0.09253446 -0.0025744105 0.0012098362 -0.113659985
000340 28 7b aa 3d 59 37 d2 bd cf 79 46 bd 76 93 34 3c
       0.083242714 -0.10264463 -0.04845601 0.011021486
000350 24 4f 4e bc f6 1e 5c be e7 4a 53 3e 79 61 25 3e
       -0.012592111 -0.21496186 0.20634042 0.16150464
000360 82 9b 49 3e e1 fc f1 bd 5e 1b ba bd 62 3f f6 3d
       0.19688228 -0.11815811 -0.09087251 0.12023808
000370 2e af dd bc 3a e0 c1 bd 30 25 82 bb a5 14 b1 bd
       -0.027061071 -0.09466596 -0.0039717183 -0.08646516
000380 f6 21 c8 bd 71 e5 c2 bc ff a6 a3 bd f7 0d 8b 3d
       -0.097721025 -0.023791047 -0.07990836 0.06789773
000390 91 36 34 3e d8 72 24 3d 45 e8 b7 bd 6f cf 08 be
       0.1759894 0.040148586 -0.08979849 -0.1336038
0003a0 2f 04 39 3e e4 bc 45 3e 55 83 26 3e d1 87 b9 3d
       0.18068002 0.19310337 0.16261037 0.09059108
0003b0 ee d7 1a be 59 c1 4c bd e9 fb b1 3b e3 e4 fb 3d
       -0.15121433 -0.04998908 0.0054316414 0.12299516
0003c0 2f 9b 28 bd a4 a3 a9 bd 0c 0d b4 3d c2 22 40 be
       -0.04116362 -0.08283165 0.08791551 -0.18763259
0003d0 ce c0 5e be 45 9a 3d bd 5a 61 73 bd f4 0f 4a be
       -0.21753237 -0.0462897 -0.059419014 -0.19732648
0003e0 2e bd 1d 3d 69 15 06 3e 80 3b 51 bd c5 17 18 3e
       0.038510494 0.13094105 -0.051082134 0.14852817
0003f0 44 2e bc 3d a7 01 84 bd a3 1d 8f 3d a5 c6 91 bd
       0.09188512 -0.06445628 0.06988075 -0.071179666

onnx::LSTM_236 f4 [1, 80, 20]
000000 ef 09 01 3e 68 80 0e 3e 0f 9c 19 be 74 9f 52 3d
       0.12601446 0.1391617 -0.15000938 0.051421598
000010 9e ab 19 be d9 10 62 bd d5 a4 3b 3e d0 31 41 3e
       -0.15006873 -0.05519185 0.18324597 0.18866658
000020 41 d1 af 3c 2f 16 c2 bd db 25 e2 bd 5e 36 29 bd
       0.021462085 -0.094768874 -0.110423766 -0.041311614
000030 78 11 4b 3e 25 d1 5e bd d7 cf 08 3e c7 81 0a 3b
       0.19830883 -0.054398675 0.13360535 0.0021134482
000040 c6 d2 49 3e ad 0d a5 bd 8a cb 19 3d 7a 07 a1 3d
       0.1970931 -0.08059249 0.037547626 0.07862754
000050 75 3b e0 3d c1 d7 f5 bd df 58 12 bc d0 4d 64 bd
       0.109488405 -0.120040424 -0.008932321 -0.05573827
000060 2d 98 27 be 12 5b 06 be 8e 70 32 be da 2a 1f be
       -0.16366644 -0.13120678 -0.17425749 -0.1554369
000070 00 08 34 be 64 b4 45 3e 0d 6b 01 be ad 8a 14 be
       -0.17581177 0.19307095 -0.12638493 -0.14506026
000080 dd ad c4 3d 53 c5 2f 3e 7d 2c 41 bd b7 d2 37 3e
       0.09603474 0.17165117 -0.047161568 0.17951475
000090 d7 42 ea 3c b4 5a 39 bb 30 f9 d2 bd 96 1e bc bd
       0.028596325 -0.0028282823 -0.10301435 -0.09185521
0000a0 49 e4 63 be 81 1c a4 bd ab e6 03 bd b1 56 40 3e
       -0.22255053 -0.08013249 -0.032202404 0.1878307
0000b0 58 18 d5 bd 51 a7 e7 3c 60 c4 3b 3e 5d 25 f1 3c
       -0.10405034 0.028278025 0.1833663 0.029436762
0000c0 2a eb 4f 3e b7 0f 4a bd 02 b6 08 be 60 52 aa bc
       0.20304552 -0.049331393 -0.1335068 -0.020791233
0000d0 b8 cb ec bd c3 5a 13 be d1 8b 2b 3d c4 e4 6d bd
       -0.11562294 -0.14390092 0.041881386 -0.058079496
0000e0 b7 7c 64 3d be ea 18 be 28 8b 07 be 8f fc d4 3d
       0.055783 -0.14933297 -0.13236678 0.10399734
0000f0 87 a1 27 bd d5 60 f2 bd 50 57 30 be 3f d3 4f 3e
       -0.04092553 -0.118348755 -0.17220807 0.20295428
000100 8f 5c fb bd ac 40 38 3e ea ea 1d 3e e6 42 a8 3d
       -0.122735135 0.1799342 0.15421644 0.08215885
000110 fa 3e 0c 3c 96 f0 0a be fb b9 54 be 03 32 09 be
       0.008559937 -0.13568339 -0.20774071 -0.13397984
000120 ed 42 cd 3b 85 4a 1b 3e d1 a8 25 3e e3 f7 51 be
       0.0062640817 0.15165146 0.1617768 -0.20504718
000130 34 0c fd 3d 7a 98 9b bd a8 3e 14 3d e1 ca b7 3d
       0.12355843 -0.07597442 0.036192566 0.08974243
000140 95 da d1 bd b4 ba 23 bd 92 1f 2f bd 73 f3 55 3d
       -0.10246769 -0.039972976 -0.042754717 0.052234124
000150 e8 e4 13 3d 76 92 ce bd 52 72 37 be 3e 2a f9 bc
       0.036106974 -0.10086529 -0.17914703 -0.03041565
000160 0d 3b e7 bd 25 43 3e 3e 0a dc 3c 3c 2d 99 0c bd
       -0.1129056 0.18580301 0.011527071 -0.034325767
000170 9b c2 2e bd 92 00 01 3e 2c 55 14 be 14 96 5c bd
       -0.04266606 0.12597874 -0.14485615 -0.053854063
000180 9c 93 57 3e 4b 0c 2d 3e e5 0f 55 be b9 2a 47 3e
       0.21052402 0.1689922 -0.20806845 0.19449891
000190 57 ac 96 3c 8d de da 3c ab 84 3e 3b 3e 7a d6 bd
       0.018392725 0.026717449 0.0029070775 -0.104725346
0001a0 d3 8a 19 3e 81 da 3f 3e bb 7c 61 be 38 19 4e 3e
       0.14994363 0.18735696 -0.22020237 0.20126808
0001b0 e0 be 09 bd 43 fe 71 bd 4b 1c 47 be 10 db a6 bd
       -0.0336293 -0.059080373 -0.19444387 -0.081472516
0001c0 d6 3c 44 3e 51 a2 f7 3d 70 67 ac bd 2d 8d eb bd
       0.19163832 0.12091506 -0.08418167 -0.115015365
0001d0 09 41 24 3d e7 69 be bd 05 d0 0a be 40 82 06 3e
       0.040101085 -0.09297543 -0.13555916 0.13135624
0001e0 f7 65 b8 bc b7 20 0d 3e e2 a3 f0 3d 96 a6 10 be
       -0.022509558 0.13782011 0.11750008 -0.14126047
0001f0 f3 a6 5d 3e 23 60 5d 3e f9 08 19 bd d3 37 4e 3e
       0.21645717 0.21618704 -0.037362073 0.20138483
000200 79 ba 88 3d 5b c8 57 be a8 dc 2f 3e d0 6b ca 3d
       0.06676192 -0.21072523 0.17174017 0.09883845
000210 5d bf b6 bd 70 91 d3 bd 92 1c 33 3e 50 6d 60 be
       -0.089232184 -0.103304744 0.17491367 -0.219167
000220 55 15 14 be f9 71 e6 3d 6f 6d 4a bd f4 d2 db 3c
       -0.14461263 0.11252207 -0.04942077 0.026833989
000230 3b 99 26 be f8 df 91 3d 6a 86 27 3e c5 d7 3a 3e
       -0.1626939 0.07122797 0.16359869 0.18246372
000240 41 5f f4 3c 20 ad 89 3d 68 b3 d0 3d dc 4f 35 be
       0.029830577 0.06722474 0.10190469 -0.17706245
000250 ad bd 75 bd 25 29 5d 3e 18 a5 41 3e c6 31 c3 3d
       -0.059995342 0.21597727 0.18910635 0.09530978
000260 35 c4 70 3c 49 31 da 3d 07 be ba bd 76 fd c1 bd
       0.014695217 0.10653932 -0.09118276 -0.09472172
000270 e9 aa 04 be 5a 86 ac 3d e8 83 9d bc 42 84 c3 3d
       -0.12955822 0.08424063 -0.019227937 0.095467106
000280 59 3b 3b be b0 25 dc 3d 63 ff e4 bc 3b db 4d 3e
       -0.18284358 0.10749376 -0.02795381 0.20103161
000290 fd 16 3e bc 34 e2 a6 bc 67 95 0c be 3e c1 23 be
       -0.0116021605 -0.020371534 -0.13728867 -0.15991685
0002a0 8d ce 95 3d 7f 1d 52 3e c7 0c 1a bd a5 dd 95 bd
       0.07314787 0.20519064 -0.03760984 -0.07317666
0002b0 85 bf 1c 3e 5c f8 fd 3d 75 2d 80 3c f5 19 a4 bd
       0.15307434 0.124008864 0.015646676 -0.080127634
0002c0 63 b7 f5 3d 24 2b 3e be ed 3a 0c be ff 7a 33 3e
       0.11997869 -0.18571144 -0.13694353 0.17527388
0002d0 87 57 06 be f3 78 43 be df f7 2d 3e 86 89 37 3e
       -0.13119327 -0.19089107 0.16989087 0.17923555
0002e0 e5 24 81 3d ac a0 9e bd e3 69 3c bd 95 08 30 be
       0.06305865 -0.077454895 -0.04599942 -0.17190774
0002f0 e7 36 0d 3d e5 d4 f9 3d 73 5a 56 bd cb 7b dc 3d
       0.034476187 0.121988095 -0.052332353 0.10765799
000300 b9 6c 0b be 8a b6 10 3e 65 62 f0 bd 5f 57 90 3d
       -0.13615693 0.14132133 -0.11737517 0.07047915
000310 22 1e 93 bd 76 2c d1 3d bc 1c 82 3d 25 27 59 be
       -0.07183482 0.102135584 0.06353137 -0.21206339
000320 f7 2e 44 be 82 0f 9d bd 44 ab 3a be 74 96 85 3d
       -0.1915854 -0.076689735 -0.18229395 0.06522837
000330 98 ce bd 3d aa 9f 52 3e 96 42 4b 3d fe fa 16 3c
       0.0926792 0.2056872 0.04962405 0.009215115
000340 95 9b e2 bd 88 be 22 bd a4 1b dc 3d 33 c4 d4 3d
       -0.11064831 -0.039732486 0.107474595 0.103889845
000350 c5 35 71 3d 74 eb 0e be 5a 82 21 3c 71 e7 0a 3e
       0.05888917 -0.13957006 0.009857738 0.1356485
000360 53 43 0b 3e cc 9b 98 bd 17 1e cf bb e3 37 64 3e
       0.13599901 -0.07451591 -0.0063207257 0.22286944
000370 83 01 c7 3d 52 05 b5 3d 60 84 dd bd a7 2c ee bc
       0.09717085 0.088389054 -0.10816264 -0.029074026
000380 fb 32 74 bc d1 3c 86 3d 1a 60 f1 3d 96 b7 67 3d
       -0.014904733 0.065545686 0.11785908 0.056571566
000390 fb f8 25 3d 74 44 0f be 7d ff 40 be e9 e2 33 3e
       0.04052065 -0.13990957 -0.18847461 0.17567028
0003a0 bb 5c ff bc 6e 56 2c bd a5 13 b5 bc 47 19 0f 3d
       -0.031172147 -0.042074613 -0.022104094 0.034936216
0003b0 74 f1 3b be 20 44 2a be fc b8 0c 3d 22 78 d5 bd
       -0.18353826 -0.1662755 0.034356102 -0.10423304
0003c0 4a e1 d9 3d a6 55 96 3d 69 4e b5 3d d0 3a d8 3c
       0.106386736 0.07340555 0.08852846 0.026395231
0003d0 b6 ea 95 bd 95 26 d4 3d 31 ea 41 bd 00 33 13 bd
       -0.07320158 0.103589214 -0.047342483 -0.03593731
0003e0 43 80 a6 3d 5e a1 8e 3d e8 93 01 be 73 d2 c3 3d
       0.08129933 0.06964372 -0.12654078 0.095616244
0003f0 2d 20 ab 3d cc 24 20 be 90 ab 20 be 97 82 48 3e
       0.083557464 -0.15639037 -0.15690446 0.19581066

onnx::LSTM_237 f4 [1, 160]
000000 8b 4d bc bc e1 43 d5 bd 97 27 51 be bb ee 5a be
       -0.022986194 -0.104133375 -0.20425259 -0.21380131
000010 6c 19 4e 3e 94 5f 12 3b 6b 68 b4 bc 93 df 06 bb
       0.20126885 0.00223348 -0.022022447 -0.0020580038
000020 56 99 0b 3e 9c 73 c9 bd de 4c 40 3e 0d 16 b5 bd
       0.13632712 -0.09836504 0.18779323 -0.088420965
000030 aa fa e6 bd 5b 01 98 3d 60 bd ac 3d b6 85 a5 3c
       -0.11278279 0.074221335 0.08434558 0.02020536
000040 88 f6 0d 3d 13 79 04 be d7 f5 b7 3d 59 37 3b 3e
       0.03465894 -0.12936811 0.08982437 0.18282832
000050 ba 1b 38 be bd b0 84 bd a6 6e d2 3d dd 89 c4 bd
       -0.17979327 -0.06479023 0.10275011 -0.09596608
000060 c5 9d 07 3e 0e 1f b8 3d e9 d1 43 3e 61 54 16 bd
       0.13243778 0.08990298 0.19123043 -0.036701564
000070 ed 21 21 be e0 76 de 3d 6e e0 10 3c 3c e3 95 bd
       -0.15735598 0.10862517 0.008842571 -0.07318732
000080 77 82 5d 3e 2f dd ac 3d 55 91 1d be 9d 0e ae 3d
       0.216318 0.08440625 -0.15387471 0.08498881
000090 36 ad af bd 97 62 57 3e 84 c3 21 3e 9d 65 23 3e
       -0.08577959 0.21033703 0.1579724 0.15956731
0000a0 f8 ec e7 3a 64 1b d6 3c 65 ed 57 be 47 87 4c 3e
       0.0017694524 0.026136108 -0.21086653 0.19973479
0000b0 cc 0e 50 3e 30 64 c5 bd 69 a7 6d 3d 5d 8e 88 bd
       0.20318145 -0.0963825 0.058020983 -0.06667779
0000c0 49 09 09 be bd 06 67 bd 0f 81 cc 3b ec 67 99 bd
       -0.13382448 -0.05640291 0.006240971 -0.07490525
0000d0 d3 83 ac bd f7 a5 0a be e8 5d 7e bd dc b3 d4 3d
       -0.08423581 -0.13539873 -0.062101275 0.10385868
0000e0 f3 b1 ed bc aa 30 39 3e 8d a5 46 bd 99 2e 41 be
       -0.029015517 0.1808497 -0.048497725 -0.18865432
0000f0 23 2a 43 be 90 20 e4 3d f5 cb 59 be d7 f9 22 be
       -0.19059043 0.11139023 -0.2126921 -0.15915619
000100 dc ba ca 3c 3f 63 15 3e 9e 79 26 be f1 a3 5b 3e
       0.024747305 0.1458864 -0.16257331 0.21449257
000110 7e db 86 bd 68 5c 30 be ea cc f9 bd 4b e1 d3 3d
       -0.065848336 -0.1722275 -0.121972874 0.103457056
000120 bb ed f2 bd ef ea 5a 3e 78 ae b7 bd 82 9c 32 3e
       -0.1186175 0.21378683 -0.08968824 0.17442515
000130 f4 7a 32 3e ec a9 0e bd 8b 92 53 bd 11 a0 09 be
       0.17429715 -0.03483002 -0.051653426 -0.13439967
000140 94 e7 2c 3e 56 c4 da bb 09 d9 48 3e 11 f3 3b 3d
       0.16885215 -0.006676237 0.19614042 0.045886103
000150 dd f5 9e 3d 6e 2a 29 3d c9 b3 2a 3e b5 17 0d 3d
       0.077617384 0.04130023 0.16670145 0.034446437
000160 20 26 98 3c 09 e3 63 be f6 54 0b be 56 8f 05 3e
       0.018572867 -0.22254576 -0.13606629 0.1304296
000170 c1 dd 94 38 95 c2 92 3d fe bc 54 be 86 60 03 3e
       7.098495e-05 0.0716602 -0.2077522 0.1282979
000180 55 ae 0b bd b6 b7 14 bd ad e4 49 be 64 f9 a8 3d
       -0.034101803 -0.036308013 -0.19716139 0.082506925
000190 b7 2b fb bd b5 5e ad bd c1 d5 12 be 2a 7a 24 3e
       -0.12264197 -0.084653296 -0.14339353 0.16062227
0001a0 c9 cd 1a 3e 16 98 2a 3c 24 5a 23 be 44 1a b3 3d
       0.15117563 0.010412237 -0.15952355 0.08745244
0001b0 8c b2 ad 3d 9e 2b a9 bd 0c c8 2a 3d ab 00 07 bb
       0.08481321 -0.082602724 0.041694686 -0.0020599763
0001c0 34 56 9b bd 0c 2b cf bd 1f 39 51 3d 28 59 52 3d
       -0.07584801 -0.101156324 0.051079866 0.051354557
0001d0 64 66 33 3e fb 91 14 bd 8e 23 34 be 8b af f4 3d
       0.17519528 -0.03627203 -0.17591688 0.11947545
0001e0 67 49 03 3e c8 c0 4c be c2 73 7b 3d 15 a3 0e be
       0.1282097 -0.19995415 0.061389692 -0.13929398
0001f0 4f 9e 40 3e 87 21 12 3e 7e ca 63 be cc 13 4b bd
       0.1881039 0.14270602 -0.22245213 -0.049579427
000200 60 9a f5 3d 3f eb 51 3e e7 d0 e3 bd 02 18 05 3e
       0.11992335 0.20499896 -0.11123829 0.1299744
000210 4a 2b 24 be 12 04 22 be 4b 68 12 be c4 f9 b5 bd
       -0.16032138 -0.15821865 -0.14297597 -0.0888553
000220 2d 01 57 bd e7 9f 06 3d e5 ba 0d 3e 47 70 52 be
       -0.052491356 0.03286734 0.13840826 -0.20550643
000230 77 fc 56 be 64 c9 4c 3e 82 21 4c be 7d 25 f1 bd
       -0.20994745 0.199987 -0.19934657 -0.117747284
000240 f5 bc 00 3d f1 68 91 3b 26 6b d6 3d 97 91 44 bc
       0.031430203 0.004437559 0.10469656 -0.011997602
000250 b9 38 fb 3c 97 1c a7 bd 6a 9a 3a 3e a1 f5 23 3e
       0.030666696 -0.0815975 0.18222967 0.16011669
000260 04 12 19 3e e3 ac 39 3e 1d 6c d6 bb fb 27 51 be
       0.14948279 0.18132357 -0.00654365 -0.20425408
000270 0a f7 30 3e 34 29 e0 bd 04 55 1e be 1e b2 3c be
       0.17281738 -0.10945359 -0.15462118 -0.18427321
