LDSP-lite/src/main/assets/RTNueralLSTM.onnx (onnx, 26947 bytes, 7 tensors)

dense.weight f4 [1, 20]
00000000: 559b 5b3e feed 423d eba9 613e 7d5a 98bd
00000010: 7e90 333e 7013 ce3d 6faa 07be cc6d e93c
00000020: 6243 253e 4c2f 2fbe 3b94 f8bd 681c c33d
00000030: df2d d03d 60e0 b0bb 6b47 c8bd d2fa 7e3d
00000040: c63e 54bd 1409 633d 9afa 06bd 6f2a d03d
0.21445973 0.04759025 0.22037475 -0.07439134 0.17535588 0.10062301 -0.13248609 0.028494738
0.16138986 -0.17107886 -0.12137648 0.095269024 0.10164999 -0.0053978413 -0.09779247 0.06225092
-0.051817678 0.05542858 -0.032953836 0.101643436

onnx::LSTM_217 f4 [1, 80, 1]
00000000: 9efe 4a3e 9749 453e 268d 98bd 9f34 483e
00000010: 97d0 cbbd 69cd 81bd 034a 1fbe 9b92 8cbd
00000020: 13ed 353e ce91 ddbd 772b 393d 04cd a63d
00000030: e9da dd3d 6238 0abe 0afa c2bd 4762 b8bd
00000040: 8b60 47be b423 9fbd 7442 a13d 2062 27be
00000050: 55a1 123e b771 2e3e eb56 7ebd c667 523d
00000060: fce9 bb3d 7aea 443c 9160 2dbe 567a bc3d
00000070: af20 5b3c b9fc a4bd f672 e4bd 48f5 a83d
00000080: 5b49 00bd e6db 44be 116d 573d 4c41 1f3e
00000090: e99d d7bd 88c5 67bd 9a59 703d 92ac 473d
000000a0: c988 963d 22ab 51be bb1d e13c 45ca febd
000000b0: 9fcb 60be bdb9 143e cfbc 48be 2052 ba3d
000000c0: 2ef8 393e 23c7 8b3d c580 06be daa4 9fbd
000000d0: ecfa 24be 2ce1 4e3e 74fd 503e a893 b3bd
000000e0: 9282 3d3d acd7 1a3e 73a4 303d 6996 3abe
000000f0: 9b45 2dbe ded2 f1bd d84f edbc 508c 983c
00000100: fdf1 9b3d 5e01 97bc a696 0d3e 7539 60be
00000110: 811f c1bd 8c84 31be 5c19 bbbc d786 263e
00000120: 722a 403d 4e42 78bc c5f1 253d e783 12be
00000130: 7f15 2a3c b999 05be 5c01 1f3e 6de4 103d
0.19823691 0.19266354 -0.07448797 0.19551323 -0.09951895 -0.06338007 -0.15555577 -0.068639
0.17766218 -0.10818826 0.045207467 0.081445724 0.108327694 -0.13498071 -0.095203474 -0.0900312
-0.19470422 -0.07770482 0.07874003 -0.16346025 0.14319356 0.17035566 -0.06209461 0.051368497
0.09175488 0.012018794 -0.16931368 0.09203021 0.013374492 -0.080560155 -0.111547396 0.08249909
-0.031319957 -0.1922451 0.05259425 0.15552253 -0.10528166 -0.056584865 0.0586792 0.04874856
0.073503084 -0.20475438 0.027479997 -0.124409236 -0.21952675 0.14523979 -0.19603275 0.09097695
0.1816108 0.06825092 -0.13135059 -0.07795115 -0.16111344 0.20203084 0.20409185 -0.087683976
0.0462671 0.15121335 0.04312558 -0.1822144 -0.16921084 -0.11807798 -0.028968737 0.018621594
0.07614515 -0.01843327 0.13826999 -0.21896918 -0.09429837 -0.17335719 -0.02283924 0.16262375
0.04691548 -0.015152527 0.040513773 -0.14308129 0.010381102 -0.13046922 0.15527862 0.035374094

onnx::LSTM_218 f4 [1, 80, 20]
00000000: 4f62 543e 67d0 9abd 2b17 44bd 6908 13be
00000010: 9174 dd3d 77ba 3a3d 910c c1bd 184b ef3b
00000020: d0c9 3c3e 6852 3c3d 34ce 8e3d 0525 6b3d
00000030: e402 2ebd b49e e5bc fc44 2d3e 5967 4ebe
00000040: 0816 9bbd c596 e73d 54f7 e03c 014b 36be
00000050: 4a33 55be 4020 54bb e9fd ab3d 45e6 cdbd
00000060: 46f4 ecbb d815 6dbd acfb b8bd 4d03 b83c
00000070: 0439 f33d 1bfd 5c3d ed80 493e 0d05 babd
00000080: fdad 35bd ccc7 9c3d dc13 2bbe 7393 2cbc
00000090: 58db 43be adad 483e 53f9 1a3d a441 3d3e
000000a0: fbff 05be 7c74 3f3c fb56 2bbe 99e5 0b3e
000000b0: f0fc 363e 1be3 e7bd 41cc 22be 77b6 fc3d
000000c0: 6d82 793d e6a4 1abe 0f2c 4f3e da5b 49bd
000000d0: 8bf1 233d 3f72 313e db8b 5c3e 5901 783c
000000e0: 0d82 453d c1eb 5bbe 025e 80bd 790b 4dbd
000000f0: 8ef5 5abd 8ac4 323d 0a77 60be fc9a 973d
00000100: ce22 86bd 4bf4 c93c d8ea b7bd d0ed 1c3e
00000110: 52ad 3e3e 2955 5e3e e864 14be aa09 183e
00000120: a7e7 36be ac11 79bd 7f50 2e3e f447 dabc
00000130: fc68 0e3e b4a9 e53d 1668 0fbe 7d5b 11be
00000140: 5d2f b1bc 9f7f 1b3e 9493 88bd 7a79 8bbc
00000150: ca48 363e f42d 573d 555a d4bd a0ef 9b3c
00000160: c27e 433e 9761 4e3e 7517 24be b3f9 21bd
00000170: 1210 c5bd fd72 183e 41fa 5b3d 66b9 923d
00000180: b646 54be a12b 27bd a5f3 273d 4f82 d7bd
00000190: bf40 983d d8c4 61be ecf5 be3d 795e 56be
000001a0: 7c47 52be 322f 24be 83d0 a73c c497 71bd
000001b0: 348b 063e d881 513e 79f0 593e 1936 083e
000001c0: 603a 21be 3ec9 54bd bd32 873d b324 563e
000001d0: acee 383e 06cd 263e f994 4c3e c79b 5abd
000001e0: a522 013e 6788 30be dc75 5c3e 8b0d 82bd
000001f0: 469c b8bd 0ef5 483e afef 64be 17ed 173e
00000200: 7dfe 12be ac98 84bd e81e d23c f1b9 643e
00000210: c2c1 efbd abc1 63bd ecb3 933d b556 c93b
00000220: b0b5 693c a67d 5cbe a4dd 083e c9f5 23be
00000230: 3511 103e 8a50 90bd a992 66bd aed9 ed3d
00000240: 5fcc a53d 28c7 d9bc fabc 573d eea2 b1bd
00000250: f4fb 763b 8a27 603d c030 3dbe b383 25be
00000260: b455 c9bc 1ba6 703d e1c8 8fbd 16c3 22be
00000270: 0943 4bbe 87e3 bc3c e6d4 513e e54c 393e
00000280: 1f12 1d3e 848f 7e3d 34c9 c53d 60ab 8e3d
00000290: 9378 253e ac8f 0b3c d4fc b0bc f0f5 4abe
000002a0: ee3f 093e 271f ee3d d34e b8bb a6cb 4a3e
000002b0: 8db8 953c 6cc0 1d3e 10e4 ccbd e543 c13d
000002c0: a261 62be 8718 56be 1511 54be c100 3f3e
000002d0: 0b88 d23d da22 16bd 5e0f 9d3d fcc7 5bbe
000002e0: a932 3b3e faf5 cb3b 17ca 13be cfe0 2fbe
000002f0: ec07 ecbd 1bed 2e3e a4e8 2cbd a16b c2bd
00000300: 5111 c03d 5932 1abe e28b 31bc 5772 d1bd
00000310: 3d8a 2c3e 5469 9dbd 6b79 743d 1adc 493e
00000320: e11e 4f3e e00d 013d a1e7 2bbe e595 29be
00000330: 2a22 5fbe 2bf2 3c3e 7242 493e 58b4 8cbd
00000340: 380b 01bd d433 863d 5f20 d9bd ee97 04be
00000350: 4860 643e b38d c83d d75b 9cbd 057a 4ebe
00000360: 1355 4ebe 6732 52be c1cd 213e 6da9 1e3e
00000370: 1894 a53d 0e24 27bc 1d90 563c 8884 eebc
00000380: 1e07 403d a005 95bd 4728 143e 1f39 2b3e
00000390: 1fa6 393e 9a4f 14be b6be c8bd 6229 263e
000003a0: bb65 03bd 06a8 493e 1718 533e 1b61 393e
000003b0: 57dd 553d 84f3 1ebe d614 41be fbd0 43bd
000003c0: 94e2 113e 6263 943d e844 33be 5b67 d33d
000003d0: bcf8 0ebe a17f 0dbe dfb7 3d3e 6ce1 11be
000003e0: cf6c 60be cd49 bd3d 4cbf 9a3d b71a 153e
000003f0: 62d5 513e d35a a0bd 72fa 773d e949 24be
0.20740627 -0.07559281 -0.047873657 -0.14358677 0.10813249 0.045587983 -0.09426225 0.007302653
0.1843636 0.045977026 0.06972924 0.05740835 -0.042483225 -0.028029777 0.16920847 -0.20156612
-0.075725615 0.11308054 0.027461685 -0.17802049 -0.20820346 -0.0032367855 0.08398039 -0.10053686
-0.007231268 -0.05788216 -0.090323776 0.022462511 0.11876109 0.053952318 0.19678088 -0.090829946
-0.04435538 0.07655296 -0.16706795 -0.0105332015 -0.19126642 0.19597502 0.03783543 0.18482071
-0.1308593 0.011685487 -0.16732399 0.13661803 0.17869925 -0.11322614 -0.15898229 0.1233949
0.0609154 -0.15101966 0.20231651 -0.049159862 0.040025275 0.17328738 0.21537726 0.01513704
0.04821973 -0.21476652 -0.062679306 -0.05005977 -0.053456835 0.043644466 -0.2192041 0.07402608
-0.06549607 0.02465262 -0.0898034 0.15325093 0.18620804 0.21712174 -0.14491618 0.14847437
-0.17861806 -0.06080787 0.17022894 -0.026645638 0.13907236 0.11214009 -0.1400455 -0.14195056
-0.02162903 0.15185402 -0.06668773 -0.017025698 0.17801204 0.05253406 -0.10368792 0.01903516
0.19091323 0.20154415 -0.16024573 -0.039544772 -0.09622206 0.14887615 0.053705458 0.07164268
-0.20730099 -0.040813092 0.041003842 -0.10522901 0.07434224 -0.22047746 0.093242496 -0.20934476
-0.20535082 -0.16033629 0.020485168 -0.058982626 0.1313904 0.20459688 0.2128314 0.13301887
-0.15744925 -0.051949732 0.066014744 0.20912437 0.18059796 0.16289148 0.19978704 -0.053371217
0.12610872 -0.17239533 0.21529335 -0.06350239 -0.09014182 0.19624731 -0.22357057 0.14836536
-0.14354892 -0.06474432 0.025649503 0.22336556 -0.11706878 -0.055604618 0.07212052 0.0061443695
0.014264509 -0.21532306 0.13365799 -0.16011728 0.14069064 -0.070466116 -0.05629221 0.11613785
0.08095621 -0.026584223 0.052670456 -0.086736545 0.0037686797 0.054725207 -0.18475628 -0.1616352
-0.024577 0.05875216 -0.070207365 -0.15894732 -0.1984979 0.023057712 0.2049137 0.18095739
0.15338944 0.062148586 0.09657517 0.06966281 0.16159277 0.008518141 -0.021604933 -0.1982038
0.13403293 0.116270356 -0.005624631 0.19804248 0.018276477 0.15405434 -0.10004437 0.09436778
-0.22107556 -0.20907794 -0.20709641 0.18652631 0.102798544 -0.03665433 0.07668947 -0.21463007
0.18281044 0.006224391 -0.1443256 -0.17175601 -0.115249485 0.17082636 -0.04221405 -0.09493185
0.09378303 -0.15058269 -0.010836573 -0.10226887 0.16849609 -0.07686105 0.059686106 0.19712868
0.20226623 0.031507373 -0.16787578 -0.16561086 -0.21790376 0.18451755 0.19654253 -0.06870335
-0.03150484 0.06552854 -0.106018774 -0.12948582 0.22302353 0.09792652 -0.076347046 -0.20163734
-0.2014964 -0.2052704 0.15801145 0.15494318 0.08084887 -0.010201467 0.013095883 -0.02911593
0.046881787 -0.072764635 0.1446849 0.16721009 0.18129776 -0.1448349 -0.09802 0.16226724
-0.03207944 0.19693002 0.20614658 0.18103449 0.05221304 -0.15522581 -0.18855605 -0.04780672
0.14246589 0.07245518 -0.17506754 0.10322448 -0.13962072 -0.13818218 0.18527173 -0.14246148
-0.21916507 0.09242592 0.07556018 0.14560972 0.20491555 -0.07829823 0.060541578 -0.1604382

onnx::LSTM_219 f4 [1, 160]
00000000: 98d2 553e 1b37 373e 7018 f83d c290 15be
00000010: 0f17 b03d 99c2 393e f6ac b83d 9772 41be
00000020: 45be 4c3e 713e b0bd d66c 8e3d 8573 2cbe
00000030: dfc1 c2bd 0071 bdbd 2f83 273e b49b 4dbe
00000040: e62a 86bb dda4 123e 66d3 a33d 72a1 1d3e
00000050: 7999 a63d 4194 2d3e b096 e7bd 5fef 183e
00000060: 6f91 e8bc 12fe 39be 5ec9 39be 89c4 363e
00000070: 9550 d6bd c09a 8a3d c3b9 373d f14a bb3d
00000080: 3203 133e 43d1 a5bd a69b 2b3e e907 3ebe
00000090: f194 363e 8bb2 cb3d 7bde 323e d655 43be
000000a0: 05fc ed3c ae4a 16bb 9d6c a7bd c668 42be
000000b0: 852f a33d c786 cebd 2d38 f23b d3f5 d5ba
000000c0: 8621 9f3d 0276 06be 4eb5 c0bd d5c1 4f3e
000000d0: 700f 47be e283 42be a90e 113d 827d 62be
000000e0: 8380 a4bd 2ca1 3cbd 37df 613e b18c 8bbd
000000f0: 2f9f 3d3e 54db e33d 0fa7 eabd 2451 213e
00000100: 92a4 e2bd a8d0 0cbd 1ecc 643e 757a 8c3c
00000110: 79eb 063e 4db3 dc3d f038 0bbd ef68 20be
00000120: cf92 143e 3fa2 e0bc f7e6 37be 4330 61bd
00000130: 6c57 043e c05d 763c b9be 2f3e 38fc e8bd
00000140: 0230 7d3d 44ef 15be b01f 853d 6452 f0bd
00000150: c75b 02bd 00b7 78bd 463f a53b 1d91 053e
00000160: e1f3 113e 6eb2 efbd 5015 563e 4fb0 a53d
00000170: f268 94bd 4063 5f3e a34b 223e 80d0 30be
00000180: c46e 973c 8386 553e 0e46 0c3e a687 4cbe
00000190: 83f7 11be 41bc 773c e8dd 17be bddf 593e
000001a0: a71e 543e 130a afbc 2954 92bd 7220 433d
000001b0: 1901 25be 8ea8 4c3d 5f74 9f3d 932b d53c
000001c0: b039 a73c 5b8f b43d 969d e5bc 37f2 52bd
000001d0: 7e89 0bbd 724a bf3c bdfe 9e3d 54cf 17be
000001e0: 8fe0 663d 2a7c d1bd 046a 143e 6671 2a3d
000001f0: ec48 09be 7dcd 05bd 37c3 783c 0dc5 363c
00000200: 132f 0c3e c599 003d f3d8 8ebd 6113 9dbd
00000210: 17c0 aebd d32a 2e3e 1be4 eb3d 98e1 00be
00000220: f682 c5bd 11c6 1c3e 61e0 50bd b82d 85bc
00000230: c552 e8bc 6e40 1ebe 641b 5dbe c15b 933d
00000240: ec8a 593e 8cba b8bd 711e 32be 5bb2 d6bd
00000250: 01df a63d c56d 1cbd c857 4fbe a811 52bd
00000260: e573 313e e3be 4dbd 8f8f 41be 12d4 0d3e
00000270: cbda 483e d633 4e3d bb8c 323e 3793 643b
0.20881116 0.17892115 0.12114036 -0.14606002 0.08598148 0.1814064 0.09017365 -0.18891369
0.19994457 -0.0860566 0.069543526 -0.16840942 -0.09509634 -0.09250069 0.16358636 -0.20078927
-0.0040944694 0.14320703 0.079993054 0.15393618 0.08134741 0.16951086 -0.11308038 0.14935063
-0.02838966 -0.18163326 -0.18143222 0.1784841 -0.104645886 0.067677975 0.04485489 0.09145153
0.14356688 -0.08096554 0.16758594 -0.18557705 0.17830254 0.09946164 0.17467682 -0.19075713
0.029050836 -0.0022932696 -0.08175013 -0.1898528 0.07968048 -0.100843005 0.0073919506 -0.0016323872
0.07770066 -0.13130954 -0.09409581 0.20288785 -0.19439483 -0.18995622 0.03541437 -0.2211819
-0.08032324 -0.046052143 0.22057806 -0.06813944 0.18517755 0.11125818 -0.11457645 0.15753609
-0.110665455 -0.034378678 0.2234349 0.017148236 0.13175763 0.107763864 -0.033989847 -0.15665029
0.14509128 -0.027421115 -0.179592 -0.054977667 0.12923974 0.015037 0.17162599 -0.11376232
0.061813362 -0.14642054 0.065001845 -0.11734465 -0.031825807 -0.060721397 0.005042943 0.13043638
0.14253189 -0.11703955 0.20906568 0.08090269 -0.07246579 0.21815205 0.15849166 -0.17267036
0.018485434 0.20852093 0.13698599 -0.19973621 -0.14254574 0.015120567 -0.14830744 0.21276756
0.20714818 -0.021367108 -0.071449585 0.047638364 -0.161137 0.049965434 0.07785868 0.026021754
0.02041325 0.088164054 -0.028029244 -0.051500525 -0.03406667 0.023350928 0.07763431 -0.14825183
0.0563665 -0.102287605 0.14493567 0.04161205 -0.13406724 -0.032666672 0.015183262 0.011155379
0.13689832 0.031396646 -0.069749735 -0.07669712 -0.08532732 0.17008524 0.11518117 -0.12586057
-0.096441194 0.15309931 -0.050995234 -0.016257152 -0.02835978 -0.15454265 -0.2159248 0.07195235
0.212444 -0.09019956 -0.17394425 -0.10483237 0.08148003 -0.038190622 -0.2024833 -0.05128637
0.17329367 -0.050230872 -0.1890242 0.1385043 0.19614713 0.050342403 0.17436497 0.0034877786

onnx::LSTM_239 f4 [1, 80, 20]
00000000: e12f 613e 562d cf3d 6159 5abe 7259 b9bd
00000010: 9746 29be 58da 323e 9987 86bd f3c8 5bbd
00000020: b8e3 64be e51c 3f3e d52b f83c 1460 2ebd
00000030: acad 3a3e 6319 85bd 72b1 3fbd b22f fa3d
00000040: 5a2d b7bd 3d48 3ebe 2225 5a3e 15d8 223e
00000050: 9d9a 5fbd 2206 2fbd 0c20 91bd 368f 10be
00000060: 03ce ecbd 17c8 16be 3785 0bbe ee96 cbbd
00000070: fb03 dc3c af9c 323c 7a3f 5e3e a329 eebd
00000080: afe3 cbbd c00a f73d be6e 09bb 0d69 be3c
00000090: 1fa5 d03c 4d81 213e 7acf 3dbe 6ea3 83bd
000000a0: ff42 49be 08bf 31bd fa44 623d 12ec 413e
000000b0: f71d 5abe 2481 3cbc 961a 683b d20b 453e
000000c0: b0f4 cabd 8044 42bc 3dcb cb3d f989 f0bd
000000d0: eb5b 7dbd 15ff b2bd 07d0 c03c db76 e9bd
000000e0: 3423 09be 9740 12be c493 633e ad84 b4bd
000000f0: 945e 18be 7c1c 0ebe 938b cf3d 1545 283e
00000100: 61aa 853d 3186 dd3d 8e73 ff3d 4a02 aebd
00000110: 224a 1c3e ac22 983d 0857 4abe dd36 8e3d
00000120: 2abd abbd f850 35bd bffe df3d f7ae 3ebe
00000130: 3a0b 233c 0734 3dbc 548b 19be af38 183d
00000140: 9c80 1c3e 67f2 cebd 9997 143d 1160 ecbd
00000150: 708b 0fbe c41a 50bb 6eaa 153e c87e 293e
00000160: fb71 733d 6934 2ebe 377f b6bd bd5f 9cbd
00000170: de16 1b3e 404b 49bd 07a4 3a3e 9388 143e
00000180: aada 41be 68fb 44be b5a3 083d 436c 0e3d
00000190: 0fba c1bd 8828 f5bd 1657 febd f214 90bd
000001a0: b53a 3d3d ce23 25be bd1b cd3d ce1d 30be
000001b0: 3080 1bbe a3c0 8a3d f9e5 4f3e 4b28 03bd
000001c0: e0a7 443e 4a8d 603e 64f6 d7bc 01ef b5bd
000001d0: d89f f1bc c26a 053e 7955 98bd 65fd 8dbd
000001e0: 0281 4bbe 5ae5 5f3c 8685 443e bf3b 223d
000001f0: aaaf da3d 94ac 2e3e 9475 2d3e 7ff1 df3d
00000200: 8672 073e 9c14 9f3c 462c 5e3e 3f89 3c3d
00000210: a500 bf3d 6d47 0c3e cf67 903d b841 bb3b
00000220: 5a25 0a3e 3b33 443e 72bd 39be 85c3 1f3e
00000230: 5816 41be 74b3 0ebe 26f5 70bd 9db1 b7bd
00000240: 6607 a43d ab3d 433e c525 3c3e 4660 3ebe
00000250: 6141 29bd 04f6 433e 0019 23be f072 4c3e
00000260: 9e90 b6bc 6748 dcbd b4e7 e7bd f135 8fbd
00000270: 6839 303e aa19 543e 84e5 103d 28d9 e8bd
00000280: b81a 3d3e 7f1e f6bd 63ab e1bd 273d 25bd
00000290: 9d1a 4cbe e0e7 25bb bf3c 5abe 0ee7 2f3c
000002a0: 7eec af3d fd12 1dbd a192 d63c 9db8 10be
000002b0: 4846 56be b66c 38be b1f3 623e d065 573e
000002c0: 596d 23be 45e8 54be f0e7 343e 5477 78bd
000002d0: 6641 a53d b292 3cbe 5624 62be fada 503e
000002e0: 57bc cabd aea6 213e 959b 47be 93a3 3abd
000002f0: 9412 32be d4c9 44bc f059 513d 4f0e c5bc
00000300: e509 013e 9101 0b3c 7ba0 92bc 38c5 453e
00000310: f5f5 403d 9839 8abd 0ad2 503e 75e8 b1bc
00000320: fb57 323e 28ad 11be 507b 43bd 7426 10be
00000330: 7f4c 863d 56ba 02bb e7bb 293e 41bd 193e
00000340: e602 5d3e c5d0 d13d 36fd 483d 4fc2 5b3e
00000350: 7883 39be 3c55 c53d 0b40 cabd dff5 1abe
00000360: b302 c83d aa70 b53d b473 16be 195d 59be
00000370: 2aae 92bd 1542 343e 6498 403e e82c efbc
00000380: dffe a1bd 375f 2fbc f9d5 e3bd 61f6 d13d
00000390: b5c8 1bbe e1eb d63d 4aa8 90bd c529 4dbd
000003a0: 2120 473e 4f35 5e3e a068 1cbd 6633 d43d
000003b0: e1ef e13d a555 173e 0e76 dfbc f7ed f7bd
000003c0: 81fd 63be ca59 973d 39d4 1fbe 0747 5f3e
000003d0: f1e3 923d 33e6 bcbd 1810 163d 5705 92bd
000003e0: 6d18 263e 34a8 eb3d a62b 5f3d d439 1c3e
000003f0: 8799 18be c595 bd3d 25b6 febc 9b47 083d
0.2199092 0.10116069 -0.21323158 -0.090502635 -0.16530834 0.17466104 -0.06568832 -0.053658437
-0.22352493 0.18663366 0.030294338 -0.042572096 0.18230313 -0.06498983 -0.046800084 0.122161284
-0.08944197 -0.18582244 0.21303228 0.15902741 -0.05459081 -0.042730458 -0.070861906 -0.1411713
-0.11562731 -0.14724766 -0.13625036 -0.09940897 0.026857367 0.010901614 0.21703902 -0.11629035
-0.099555366 0.12062597 -0.0020970549 0.023243451 0.02546936 0.1577198 -0.18536177 -0.06427656
-0.19654463 -0.043395072 0.055241562 0.1893771 -0.21300493 -0.011505399 0.0035416237 0.1924279
-0.09909952 -0.011857152 0.09950874 -0.11745066 -0.061855238 -0.08740059 0.023536695 -0.11399623
-0.13392335 -0.14282452 0.22224337 -0.088143684 -0.14879829 -0.13878053 0.101340435 0.16432603
0.06526638 0.108166106 0.12473212 -0.0849653 0.15262654 0.07428488 -0.19759762 0.06944058
-0.083856896 -0.04426667 0.10937261 -0.18621431 0.009951407 -0.011548049 -0.14994556 0.037163433
0.15283436 -0.10104828 0.036277387 -0.11541761 -0.14018035 -0.0031754235 0.14615795 0.1655227
0.059434872 -0.1701218 -0.08910983 -0.07635448 0.15145442 -0.04914403 0.18226634 0.14505224
-0.1893107 -0.19236529 0.03335925 0.034771215 -0.09459316 -0.11970621 -0.12418954 -0.07035245
0.046198566 -0.1612694 0.10015056 -0.1719887 -0.15185618 0.06775024 0.20302571 -0.03202085
0.19204664 0.21928898 -0.026362605 -0.08883477 -0.029495165 0.13029006 -0.074381776 -0.06933097
-0.19873431 0.0136655215 0.1919156 0.03960776 0.106780365 0.17058021 0.16939384 0.109347336
0.13227281 0.019419007 0.21696576 0.046029326 0.09326295 0.13699122 0.0705105 0.0057146214
0.13490811 0.19160168 -0.18138674 0.15601929 -0.1885618 -0.13935643 -0.05882754 -0.08969424
0.08009224 0.19066493 0.18373783 -0.18591413 -0.041322116 0.19136816 -0.15927505 0.1996572
-0.022285756 -0.10755997 -0.11323491 -0.069927104 0.17209399 0.20712915 0.035375133 -0.11369544
0.18467224 -0.120175354 -0.110190175 -0.040341523 -0.19932027 -0.002531521 -0.21312235 0.01073624
0.08590029 -0.038348187 0.026192965 -0.14132924 -0.20925248 -0.1801022 0.22163273 0.21034932
-0.15959682 -0.20791729 0.17666602 -0.060660675 0.080691144 -0.18415335 -0.22084174 0.20396033
-0.09899204 0.1578624 -0.19492944 -0.045566153 -0.173899 -0.01201101 0.05111116 -0.024054674
0.1260143 0.00848426 -0.017898789 0.19313514 0.047109563 -0.067492664 0.20392624 -0.02171729
0.17416374 -0.1422621 -0.04772502 -0.14077169 0.06557559 -0.001994749 0.16575585 0.15013601
0.21583137 0.10244898 0.049069606 0.21460842 -0.18116558 0.09635398 -0.098754965 -0.15132855
0.0976614 0.088593796 -0.14692575 -0.2122692 -0.071621254 0.17603333 0.18808132 -0.029196218
-0.07909941 -0.010703853 -0.111247964 0.10252071 -0.15213282 0.10494209 -0.070633486 -0.050088663
0.1944585 0.21700023 -0.038185716 0.10361366 0.110320814 0.14778765 -0.027277973 -0.12105935
-0.22264673 0.07390173 -0.156083 0.21804439 0.071723826 -0.092235945 0.036636442 -0.07129925
0.16220255 0.115066916 0.054484986 0.15256435 -0.14902316 0.09257082 -0.031092713 0.033271413

onnx::LSTM_240 f4 [1, 80, 20]
00000000: 689a abbc 15cb 043e af0b 91bd d988 ddbd
00000010: 3ff6 56be ab68 713c f4b7 563e ec84 023d
00000020: 5ae5 b7bd cb54 583e 42c5 503e 9503 393d
00000030: e7cc ac3d b429 9abb a4d3 0c3e 1e19 b2bd
00000040: 9727 8f3b 2b5b 20be b309 03be 3ee5 363e
00000050: 2471 44bd e66b e9bc 65d8 323e 4a49 38bd
00000060: 6ec8 383e 2e64 d03d ff3c ca3d 7280 093e
00000070: ecb1 ee3b 66c2 563e 46e2 2e3d df77 d03d
00000080: 54ce 39be b93c 02be 2738 3a3e 3582 59be
00000090: e409 f2bb 8cb7 123e 6aed 33be 056d 35be
000000a0: 1fb8 1ebd 1688 16be 8b0a 1bbe 16c1 9a3c
000000b0: a107 e4bd 157a 52bd 62b5 5c3d 9001 1cbe
000000c0: e7c0 02be cd9d 94bd 09ca 4e3e 73a3 ffbc
000000d0: 22d7 26bd c80e 38be ac3d 4e3e 9f9b 183e
000000e0: eeff 33be 074a 893d b768 cd3b f9f2 08bc
000000f0: 2f3c 64be 35aa 813c daf9 f3bd 050e 17be
00000100: f894 b93d 85b9 bdbd 6cca 573e bad4 1d3e
00000110: 785c 3b3d 42f4 25bd 468b 0a3e 9410 323e
00000120: cfbd 86bc dc7a 03bc 8e79 adbd 2b26 8abd
00000130: a006 92bd 5634 dc3c ae30 f6bd 4444 bcbd
00000140: 3399 b8bd eac1 853d b220 06bd 098d 40be
00000150: 2ef5 8ebd d8d0 263d 57d8 a9bc 6e5a 2c3c
00000160: 0069 4fbc 15c0 403e 8d9d 523e d3a2 4cbd
00000170: 4662 153e 05c3 f0bd d037 bcbd 495c 243e
00000180: d779 4cbe e29a 063e 9899 0cbd 60f1 8d3d
00000190: 2227 543e 2f01 fa3b 0103 e4bd 1176 e7bd
000001a0: 4a88 65bc 13bf 0e3e 0645 823d 42f0 3bbe
000001b0: c430 323d a214 593e 3bfe b23c d484 a43d
000001c0: d8ae e3bd 4ea0 02be a902 f8bd 7c18 ddbd
000001d0: 48f1 cb3d 6b71 acbd ed4e f9bd 2b16 9bbd
000001e0: ad82 113e c63a 343d 4a62 b0bd 736a 82bd
000001f0: 235e f4bc 8a5f 8cbd 2513 373d 2146 a13d
00000200: cc42 96bc d11a 42be 1315 143e 0ab0 333e
00000210: 32fa 8d3d 6883 0abe 5341 223e fa13 ef3d
00000220: f4ed 3cbd 5670 16be 6e39 7e3d cd7f e3bd
00000230: 51b3 4e3e e285 453e 611e bcbd d82c 813d
00000240: 93ce 1e3e 1790 e6bc 3331 0d3d 81b6 f3bd
00000250: 6c66 4b3b 5e75 e63d 8589 38be 1c70 243e
00000260: cdf8 103d 9318 ac3b 4e8b 55be fe64 843d
00000270: d802 d2bd f414 10be 852a 343e a563 b7bc
00000280: 8218 0abe 5274 2abe 4700 543e 0aa4 ccbd
00000290: b829 ed39 09a9 44be 7f6a 10be 738b a2bd
000002a0: a2f8 1bbe d87a 3b3e d162 ae3d 75f3 593d
000002b0: 57ba c2bc 8c66 433e 782b 4e3e f39b 2abe
000002c0: 81ff 853d 6684 43be 4f79 0b3d 6835 863b
000002d0: 7de3 a53d bfca a339 4ae6 0ebe 4d96 9e3d
000002e0: f572 e33d 61e1 fbbd 3b7d 8fba a320 aabd
000002f0: a996 fe3d e16d 0b3e 4496 0f3e 5ab0 6a3d
00000300: 7eef 3c3b ff7f 0ebd a439 1c3c 0659 f53d
00000310: f4f4 f7bd a126 57be ac73 3d3d ec2b 633e
00000320: cef3 7fbd 2fd2 ad3d ec42 cbbc de76 093e
00000330: 4a4e 0c3e 7b43 0dbc 231a b9bc a092 e3bd
00000340: c14c 44be 6daa 62be f243 13be f618 0ebe
00000350: 9a4f 17be cd85 cfbd 5761 5fbe 0bcf 64be
00000360: 5a59 333e f707 333e ac4f fcbc c4a4 e33d
00000370: dca1 cd3d 9cc9 4fbe 7792 07be c122 d4bd
00000380: a0a6 4d3e cfdc 49be 3ae5 2abc ec40 8d3d
00000390: 9678 34be 84f6 40bd 8048 58be bfd5 68bc
000003a0: bd00 ccbd 48d3 463c c32f 433d e61d 94bc
000003b0: dc49 113c 90da 5f3d cda3 0fbe 4d4c 26bd
000003c0: 28c4 f2bc c0b9 22be be0d febd 43fd 09be
000003d0: 2e93 d9bd 45cd dd3d b094 57be bb35 63be
000003e0: 6d5c 51bd 43e0 ec3d 864d 4cbe 225d 0dbe
000003f0: 0d20 593e fd24 ae3d 8d0f 003e b7c5 143c
-0.02094765 0.12968095 -0.070823066 -0.10817117 -0.20992373 0.014734427 0.2096861 0.031865045
-0.08979292 0.21126096 0.20387748 0.04516943 0.084375195 -0.0047046784 0.1375261 -0.08696197
0.004368733 -0.15659778 -0.12796669 0.17860886 -0.04795946 -0.028493833 0.1746536 -0.04499177
0.18045208 0.10175358 0.09874915 0.13427904 0.0072843935 0.20972595 0.04269626 0.101791136
-0.18145114 -0.12718476 0.18185483 -0.21241076 -0.007386433 0.1432783 -0.17571035 -0.17717369
-0.03874981 -0.1470035 -0.1514074 0.018890899 -0.111342676 -0.051385958 0.053883918 -0.15234971
-0.12768899 -0.072566606 0.20194258 -0.031205868 -0.04073251 -0.17974389 0.20140713 0.14903115
-0.17578098 0.06703573 0.0062685865 -0.00835871 -0.22288583 0.015828231 -0.1191289 -0.14751442
0.09061617 -0.09263901 0.21073312 0.1541318 0.045742482 -0.040516146 0.13529691 0.17389137
-0.01644793 -0.008024897 -0.0847045 -0.06745561 -0.0713017 0.026880424 -0.12021004 -0.09192708
-0.090135954 0.06531127 -0.032746024 -0.188038 -0.06980358 0.040726513 -0.020733042 0.010519607
-0.012659311 0.18823273 0.20567913 -0.04995997 0.1458827 -0.11755947 -0.09190333 0.16050829
-0.19968353 0.1314502 -0.034326166 0.06930804 0.20718053 0.0076295356 -0.111333854 -0.11301816
-0.014009545 0.13940077 0.063608214 -0.1835337 0.043503538 0.21199277 0.021849742 0.080331475
-0.11117333 -0.12756464 -0.121098824 -0.10795686 0.0995813 -0.0842007 -0.12173257 -0.075725876
0.14210005 0.044001363 -0.08612497 -0.0636796 -0.029830044 -0.0685416 0.044695992 0.07874704
-0.018342398 -0.18955542 0.14461164 0.17547622 0.069324866 -0.1352669 0.15845232 0.11673732
-0.046125367 -0.1469129 0.062066488 -0.111083604 0.20185591 0.19289353 -0.09185482 0.063073814
0.1550849 -0.02814488 0.03447075 -0.11900044 0.003103639 0.11252855 -0.1802121 0.16058391
0.035393525 0.005251953 -0.20853922 0.06464575 -0.10254449 -0.14070493 0.17594345 -0.022386381
-0.13485911 -0.16645935 0.20703231 -0.099922255 0.00045235245 -0.19205107 -0.14103125 -0.07936754
-0.15231565 0.1830858 0.085149415 0.053210694 -0.023770494 0.19082087 0.2013377 -0.16661052
0.06542874 -0.19093475 0.034051236 0.004095722 0.081000306 0.0003124084 -0.13955036 0.07743511
0.11105911 -0.12298847 -0.0010947356 -0.08307006 0.1243108 0.13616134 0.14022166 0.05729709
0.0028829272 -0.034790035 0.009535227 0.119798705 -0.12107268 -0.2101083 0.04625289 0.22184724
-0.06248837 0.08487355 -0.024812184 0.1342425 0.1370174 -0.008622046 -0.02259547 -0.11111951
-0.19169904 -0.22135325 -0.14381388 -0.1387671 -0.1477646 -0.10132942 -0.21814476 -0.22344606
0.17514554 0.17483507 -0.03079971 0.11115411 0.10040638 -0.20291752 -0.13239466 -0.10358191
0.20083094 -0.19713138 -0.010430628 0.068971485 -0.17624125 -0.047110096 -0.21121407 -0.014211117
-0.09961078 0.012135334 0.04765297 -0.018080663 0.008867707 0.054651797 -0.14027329 -0.04060011
-0.02963455 -0.1589117 -0.12404965 -0.13475518 -0.106237754 0.10830168 -0.21052814 -0.22188465
-0.051113535 0.11566212 -0.19951448 -0.13805059 0.21203633 0.08503149 0.12505932 0.009080342

onnx::LSTM_241 f4 [1, 160]
00000000: 7987 873d 83a0 e83d b021 c23d 5a15 003e
00000010: db91 193e 6992 d8bb ea68 8a3d 88de 02bd
00000020: 04b9 02be e4fa 03be 5b28 52be 4e79 05be
00000030: 006f 2dbe b01a 4b3e 66b3 133e 4327 4cbe
00000040: 1b05 b93d c943 a33d 6670 4bbd 5ba9 223e
00000050: a36c a3bd cba4 123e 593f 4dbc 5b2c 373c
00000060: b54a da3d 39fc 563e b992 adbd 0cfe 62be
00000070: e967 93bd 2df0 35bc b962 34be 148d 40be
00000080: 7329 bebd b5c8 1dbe 6eea 683d 6a83 d83d
00000090: 096f fcbb 5c52 5f3e 4e52 3abe 2871 1ebe
000000a0: d564 afbd b0fe b8bc 2820 4dbc b01d 3a3e
000000b0: dd81 573d 86c8 babd 758a 06be 9b4e 62be
000000c0: 8f0e 0cbe 4a04 903a 03b2 43bd ef9b 1abe
000000d0: 19e1 083e fe9a 13be 9436 df3d 4fe3 a0bd
000000e0: c7a9 d8bc 378a 80bd 4205 3dbe 7968 473e
000000f0: 1c44 383e a9ba 5dbe 8963 343e 80f6 a8bb
00000100: 510f 14be 5728 4b3e d3b4 29be 7834 2abd
00000110: 81c3 54be e6bc 5d3e 9d1c e8bd 8332 f7b8
00000120: f3df 0dbd 1b05 143e fb36 66bd 1f96 363d
00000130: 054c ea3d 48c0 2d3e 339c dcbd 6faf 5e3e
00000140: a6d8 833d cc24 a0bd a6b9 9f3d 21ad 56bd
00000150: e573 4d3d 7c77 a4bc 883c abbd 619a 61be
00000160: 811d 5e3e f732 0c3e ac87 2c3e cb87 113e
00000170: 2b43 293e 8274 793d dbb7 72bb 471c 323d
00000180: 1b66 48bd 69b0 0dbe b9b3 103e 0ef4 403d
00000190: 4340 c9bd dfe5 223e 0631 cc3d fe83 3bbe
000001a0: 3c87 53be ee92 11be cde4 45bc f27a 603d
000001b0: 6d64 d4bd a896 5fbe 1d73 453e b702 39bd
000001c0: 5dfa 9c3d 1222 e5bd 81a8 93bc 6d4f 413e
000001d0: 2272 08be 283e bcbd ddb1 d5bd 5019 62be
000001e0: a6be 493e dc34 93bd 60b1 5a3e a7d8 8cbc
000001f0: c5cb bb3d 9042 1fbd d3d8 7abd 35d9 5b3e
00000200: a476 31be 9c5b 30bd 0b60 54be c67f 35be
00000210: d8ab 383d c8a2 f2bc d195 0a3e dc7a 30be
00000220: c6e1 563e 521b eb3d b9f9 7a3c 8465 513e
00000230: e752 c73d 26cc eb3d 1a79 17be 7595 babd
00000240: 0bdb 14bd a98d f7bd 822c 5bbe 1141 d5bd
00000250: c2ab 0dbe 8416 283e b54f ff3c 92ea bcbb
00000260: 8ad3 f83d bcc6 573d 92c9 603d f1d4 ecbd
00000270: f16b 25bd bdfd e6bd 5392 163e b84b d53c
0.06617636 0.1135874 0.09479082 0.12508145 0.14997046 -0.0066092503 0.06758292 -0.031950504
-0.1276589 -0.12888676 -0.20523207 -0.13034555 -0.16936874 0.19834399 0.14423904 -0.19936852
0.09034177 0.07971913 -0.04966774 0.15884916 -0.07979705 0.14320676 -0.01252731 0.011180009
0.106587805 0.20994653 -0.08475251 -0.22167224 -0.07197554 -0.011104626 -0.17615785 -0.18803817
-0.092852496 -0.15408595 0.056864195 0.1057194 -0.007703666 0.21808761 -0.18195459 -0.15472853
-0.08564154 -0.022582382 -0.012519874 0.18175387 0.05261408 -0.09120278 -0.13138755 -0.22100298
-0.13677429 0.0010987606 -0.047777187 -0.15098546 0.13367118 -0.14414594 0.10899082 -0.07855856
-0.026448144 -0.062763624 -0.18459037 0.19473447 0.17994732 -0.21653236 0.17616095 -0.005156338
-0.14458968 0.19839607 -0.16572885 -0.041553944 -0.20777704 0.2165409 -0.113335826 -0.00011787286
-0.034637403 0.14455073 -0.056204777 0.04457676 0.11440281 0.1696788 -0.1077198 0.2174661
0.06437807 -0.078195184 0.077990815 -0.052411202 0.050159354 -0.020076506 -0.08361155 -0.22031547
0.21690942 0.13691317 0.1684863 0.14211957 0.16529529 0.060902126 -0.0037035856 0.043484
-0.0489255 -0.13836826 0.14131059 0.04710775 -0.0982671 0.15908001 0.09970288 -0.1831207
-0.20657057 -0.14216205 -0.012078476 0.05480475 -0.10370717 -0.21834815 0.19282193 -0.045168605
0.076649405 -0.11188139 -0.018024685 0.18877955 -0.13324788 -0.09191543 -0.10434315 -0.22079968
0.19701633 -0.071878165 0.21356726 -0.017193152 0.09169725 -0.03888184 -0.061241936 0.21469577
-0.17330414 -0.043056116 -0.20739762 -0.17724523 0.045085758 -0.029618636 0.13533713 -0.17234367
0.20984563 0.1147982 0.015318328 0.20448881 0.09732609 0.115135476 -0.1479229 -0.09110538
-0.03634171 -0.120875664 -0.21403697 -0.10412801 -0.13835052 0.16414839 0.031165937 -0.0057652676
0.12149723 0.052679762 0.054879732 -0.11564053 -0.040386144 -0.112788655 0.14704256 0.026037082
