LDSP-lite/src/main/assets/topline.onnx (onnx, 1052 bytes, 4 tensors)

denseIn.weight f4 [4, 16]
-0.12738913 -0.114418864 -0.20536268 -0.09289807 -0.04602602 0.071934044 -0.088456124 -0.11497462
-0.063459665 0.24944332 0.17172998 0.18988231 0.113630384 0.09571639 -0.11732423 0.046045274
0.10628742 -0.107840985 0.19525075 0.18261012 0.08383986 -0.027467877 0.17421517 0.0136883855
-0.17208833 0.00639537 -0.06842804 -0.06390795 -0.12925944 -0.18043518 0.18656248 -0.099898934
-0.15937516 0.12614125 0.14013264 -0.21387824 -0.13560882 0.10744324 -0.034628868 -0.17628151
0.1565646 -0.07089618 0.08300248 -0.20439437 0.22063306 -0.21310583 -0.221997 -0.11263609
0.11594039 0.2035887 0.1570718 -0.19242868 0.18202218 -0.23697114 0.06913772 0.029073149
-0.13130993 -0.16798565 -0.03237027 0.22044876 0.17708069 -0.02431646 0.0071949065 -0.13158277
00000000: 4c72 02be 7054 eabd 984a 52be 5841 bebd
00000010: c885 3cbd 2852 933d 7c28 b5bd d077 ebbd
00000020: 24f7 81bd 126e 7f3e fcd9 2f3e 8270 423e
00000030: 0cb7 e83d f406 c43d b047 f0bd f899 3c3d
00000040: 38ad d93d bcdb dcbd d0ef 473e 26fe 3a3e
00000050: 3cb4 ab3d 5004 e1bc 7665 323e 4045 603c
00000060: ec37 30be 4090 d13b 0024 8cbd 2ce2 82bd
00000070: 965c 04be 00c4 38be 3c0a 3f3e d097 ccbd
00000080: 3e33 23be 2c2b 013e ee7e 0f3e e602 5bbe
00000090: 0add 0abe 340b dc3d 00d7 0dbd 2483 34be
000000a0: 7852 203e 0432 91bd 34fd a93d c24c 51be
000000b0: a2ed 613e 6a38 5abe 2e53 63be c0ad e6bd
000000c0: 2872 ed3d 8e79 503e 6ed7 203e 060c 45be
000000d0: 0664 3a3e 90a8 72be 1498 8d3d d02a ee3c
000000e0: 1c76 06be 6e04 2cbe b096 04bd 52bd 613e
000000f0: a454 353e 5033 c7bc 40c3 eb3b a2bd 06be

denseIn.bias f4 [4]
-0.15298492 -0.18116477 0.2202135 0.23843765
00000000: 14a8 1cbe 4283 39be a67f 613e 0029 743e

denseOut.weight f4 [16, 4]
0.2595294 0.061110854 0.4712736 -0.3716219 0.373111 0.16657639 0.4306023 0.05384344
0.20779306 0.21796954 0.18022656 0.4177062 -0.15824455 -0.4377867 0.0055882335 -0.38419348
0.2646221 0.3829232 -0.35978198 -0.4371274 -0.095385075 -0.25079602 0.49759477 -0.060774744
-0.026684642 0.4769866 0.43685675 -0.20706344 -0.1741842 0.118377686 -0.09818041 -0.14569443
-0.14960039 -0.35797912 0.3031091 -0.34742522 0.34072787 -0.082933664 -0.32816142 -0.42802256
-0.41158372 0.09790915 -0.3502034 0.38399422 -0.4288994 0.077742755 0.32771248 0.31525165
-0.28703213 -0.32512474 -0.17630935 -0.11808854 -0.23951495 0.09854275 -0.031828642 -0.41715735
0.023079336 -0.45618886 -0.28677678 0.42105526 -0.49442106 -0.47836304 0.26985562 0.48432934
00000000: 0ae1 843e 604f 7a3d c64a f13e 3a45 bebe
00000010: 6808 bf3e 0093 2a3e e877 dc3e f08a 5c3d
00000020: b4c7 543e 6833 5f3e 508d 383e 96dd d53e
00000030: dc0a 22be 9425 e0be 801d b73b 02b5 c4be
00000040: 8c7c 873e 820e c43e 5835 b8be 2acf dfbe
00000050: 4059 c3bd 5668 80be bec4 fe3e f0ee 78bd
00000060: c099 dabc 9637 f43e b0ab df3e 7008 54be
00000070: 585d 32be 0070 f23d d012 c9bd ec30 15be
00000080: d830 19be 0a49 b7be 1e31 9b3e b8e1 b1be
00000090: e273 ae3e 20d9 a9bd c604 a8be c625 dbbe
000000a0: 1abb d2be 9884 c83d dc4d b3be e49a c43e
000000b0: b498 dbbe 9837 9f3d eec9 a73e aa68 a13e
000000c0: e0f5 92be c076 a6be 708a 34be 68d8 f1bd
000000d0: 6843 75be c8d0 c93d c05e 02bd a695 d5be
000000e0: e010 bd3c 9691 e9be 68d4 92be 8e94 d73e
000000f0: c224 fdbe 00ec f4be 842a 8a3e 04fa f73e

denseOut.bias f4 [16]
-0.14081722 -0.1669246 -0.29532403 0.007954121 0.3550207 -0.28153992 0.08370477 -0.3786602
0.076692045 -0.050762177 0.18322784 0.22613084 -0.17395431 -0.09203768 -0.18587089 0.39474285
00000000: 6432 10be 48ee 2abe b634 97be 0052 023c
00000010: 46c5 b53e 0026 90be 686d ab3d c0df c1be
00000020: b810 9d3d 00ec 4fbd 14a0 3b3e d88e 673e
00000030: 1421 32be 407e bcbd f054 3ebe bc1b ca3e
